11.pth (torch, 2088 bytes, 3 tensors)

pytorch_layers.0.weight f4 [5, 2]
-0.67399913 -0.6196348 -0.58922684 -0.30466726 -0.47925812 0.46827263 -0.15109654 0.0035703438
0.653704 0.69296724
00000000: 358b 2cbf 63a0 1ebf 92d7 16bf 59fd 9bbe
00000010: 5261 f5be 6ec1 ef3e 0db9 1abe 6efc 693b
00000020: 2559 273f 4d66 313f

pytorch_layers.0.bias f4 [5]
-0.22426549 -0.5670906 -0.68839675 0.48531976 0.5425072
00000000: daa5 65be d92c 11bf c53a 30bf d57b f83e
00000010: c0e1 0a3f

pytorch_layers.2.weight f4 [1, 5]
0.3789693 0.18593311 0.30161145 -0.034400858 -0.32689703
00000000: 4408 c23e 4065 3e3e d16c 9a3e eae7 0cbd
00000010: 0c5f a7be
