clas.pt (torch, 3640 bytes, 4 tensors)

weight f4 [6, 2]
-0.038941603 0.34110224 -0.5115278 0.57831526 -0.35100967 0.34856218 -0.03959781 -0.69696265
-0.64378273 -0.44811362 0.6639033 -0.1627111
00000000: 3b81 1fbd f4a4 ae3e 7cf3 02bf 780c 143f
00000010: 8ab7 b3be be76 b23e 5031 22bd 256c 32bf
00000020: f2ce 24bf 266f e5be 91f5 293f bd9d 26be

bias f4 [6]
0.037003927 0.15777037 -0.5782239 0.17942442 -0.18819056 -0.05135177
00000000: 6e91 173d 8e8e 213e 7b06 14bf 09bb 373e
00000010: 07b5 40be 3c56 52bd

weight f4 [2, 6]
0.17370757 -0.1544979 -0.3519998 0.2705427 -0.05037311 -0.4212978 0.23402622 -0.03373311
-0.31659847 0.33079135 -0.28249413 -0.15478945
00000000: 66e0 313e b334 1ebe 5139 b4be 9384 8a3e
00000010: 0954 4ebd 58b4 d7be 92a4 6f3e bb2b 0abd
00000020: 3219 a2be 7c5d a93e 12a3 90be 2081 1ebe

bias f4 [2]
-0.014911419 -0.36938137
00000000: 064f 74bc 8e1f bdbe
