class1.pt (torch, 3656 bytes, 4 tensors)

weight f4 [6, 2]
-0.67988557 -0.35775676 -0.7951057 -0.47735903 0.26639345 -0.33897474 0.57059973 -0.71506673
-0.7463024 -0.6320022 0.14816865 -0.47100404
00000000: fb0c 2ebf e52b b7be 0c8c 4bbf 6768 f4be
00000010: b964 883e 198e adbe d312 123f 9d0e 37bf
00000020: ad0d 3fbf e5ca 21bf 86b9 173e 7127 f1be

bias f4 [6]
0.40311602 0.26416022 -0.54669434 0.2738003 0.50848985 -0.342134
00000000: 3965 ce3e 0240 873e 29f4 0bbf 8e2f 8c3e
00000010: 642c 023f 302c afbe

weight f4 [2, 6]
0.364474 0.68220925 0.18796669 -0.0868396 0.33922532 0.011168109 -0.3526063 -0.56789804
0.19293109 -0.16166036 -0.2876996 -0.2919601
00000000: 569c ba3e 44a5 2e3f 577a 403e f6d8 b1bd
00000010: f1ae ad3e 72fa 363c d088 b4be c461 11bf
00000020: ba8f 453e 4b8a 25be 5d4d 93be cb7b 95be

bias f4 [2]
0.29836696 -0.3985145
00000000: 8ec3 983e 180a ccbe
