reg.pt (torch, 5088 bytes, 5 tensors)

weight f4 [16, 2]
000000 99 b5 6d c3 ef 64 9c c3 13 55 98 c2 65 8f c6 c2
       -237.70937 -312.78854 -76.16616 -99.28007
000010 67 b8 11 bf 3a 7c c2 be a1 31 25 bf 7e eb 08 bf
       -0.56922 -0.37985402 -0.6452885 -0.5348433
000020 dc e7 88 c2 ed 9d b5 c2 05 8e 06 3e 67 5e 1e bf
       -68.45285 -90.80845 0.13140114 -0.61862797
000030 47 e3 3a c3 2f c3 75 c3 5b 9c 20 c3 b2 06 54 c3
       -186.8878 -245.76244 -160.61076 -212.02615
000040 5d a2 0f c4 17 b0 3c c4 c0 6a 1c 3c dd e7 fd bd
       -574.5369 -754.7514 0.009546936 -0.1239774
000050 cd e6 33 c3 05 ca 29 c3 59 3b 36 bd fc bd b4 be
       -179.90157 -169.78914 -0.044490192 -0.35301197
000060 c7 90 92 be 58 3f 1a bf ae a4 36 c3 b6 8f 70 c3
       -0.2862608 -0.60252905 -182.64328 -240.56137
000070 a8 c8 32 be 42 73 74 be 8e e4 10 40 83 9d 07 bf
       -0.17459357 -0.23872092 2.2639499 -0.5297472

bias f4 [16]
000000 23 fd b5 c1 5b 50 d1 c0 c6 ba 29 bf da 84 d8 be
       -22.748602 -6.541059 -0.6630062 -0.42288858
000010 b4 09 c8 c0 56 14 e4 be bb 25 8b c1 c5 00 7b c1
       -6.2511845 -0.44546765 -17.393423 -15.687688
000020 bd 76 5a c2 82 f7 c4 be 4a f0 88 c1 2e fb cc 3e
       -54.615955 -0.38470083 -17.117329 0.40035385
000030 10 ed 62 be 4c 7b 8e c1 7c 1d ff be 75 3b 0c 3e
       -0.22160745 -17.810204 -0.49827182 0.13694556

weight f4 [8, 16]
000000 b8 60 8c bf 5c c6 26 bf 7a b2 39 3e 00 be bd 3a
       -1.0967016 -0.6514642 0.1813449 0.001447618
000010 82 b7 15 be b8 60 20 be 7f cd a4 bf f4 98 89 bf
       -0.14620784 -0.15661895 -1.2875212 -1.0749803
000020 e3 ba 35 c0 b6 56 17 be ba 0f c6 bf dd 2b c3 3d
       -2.8395317 -0.14779171 -1.5473549 0.09529851
000030 4c 96 b1 bd 98 d8 a5 bf 00 70 5d 3c 20 8e cf ba
       -0.08671245 -1.2956724 0.013515472 -0.0015835203
000040 41 ce 63 bf 83 2c d5 be a8 78 76 bd 66 4f 0c 3e
       -0.88986593 -0.41635522 -0.06017366 0.13702163
000050 d2 2c a5 be 28 af ab 3d e6 67 01 bf 03 1f 9a be
       -0.32260758 0.08383018 -0.5054916 -0.30101785
000060 dc 62 ec bf 78 80 67 bd 28 8d 58 bf 66 0d 25 3e
       -1.846767 -0.056519 -0.8459039 0.16118392
000070 00 47 6a 3e 76 f7 e7 be 14 34 6f be ee ef 22 be
       0.22878647 -0.45305985 -0.2335971 -0.15911838
000080 04 5f 10 be 00 67 96 bc 16 58 0c be ae b8 6e 3e
       -0.14098746 -0.018359661 -0.13705477 0.23312637
000090 00 b0 6f bd d8 fa 30 3e 00 f4 dc bb 30 9a 01 3d
       -0.058517456 0.1728319 -0.0067429543 0.031641185
0000a0 22 17 3c be a4 c6 62 3e 92 a7 39 be 40 89 9e bc
       -0.183682 0.22146088 -0.18130329 -0.019352555
0000b0 34 49 cb bd 38 66 c8 bd 00 15 32 be 70 28 bd c0
       -0.09926072 -0.09785122 -0.17390823 -5.911186
0000c0 b6 27 9b c3 6c 56 32 c3 e6 e3 10 3e 28 f1 40 be
       -310.31024 -178.33759 0.14149436 -0.18841994
0000d0 ce c0 f4 c2 08 21 a1 3d 12 ad 0d c3 d4 61 99 c3
       -122.37657 0.07867628 -141.67606 -306.76428
0000e0 ea fb 93 c3 22 85 3d be f0 ec 03 c0 a2 f6 c6 3d
       -295.96808 -0.18507817 -2.0613365 0.0971501
0000f0 30 c6 22 3d 94 9f c4 c3 a0 9d 3d bd 1c 94 f9 bf
       0.039739788 -393.2467 -0.0462929 -1.9498324
000100 d2 90 27 3e 18 85 47 3e 2c 17 3d 3e 70 07 3f bd
       0.16363838 0.19484365 0.1846587 -0.046637952
000110 d6 55 4d 3e 00 3f 78 bd 88 08 b4 bd b0 e2 4d be
       0.20052275 -0.060606956 -0.0879069 -0.20106006
000120 c4 1c d3 bd 82 21 5a be 6c d8 b1 3d 60 f7 ae bd
       -0.10308221 -0.21301845 0.08683857 -0.08543277
000130 2c b6 ed 3d dc e0 20 be f0 ff 02 3e 20 03 23 c0
       0.11607012 -0.15710777 0.12792945 -2.5470657
000140 e7 7c 74 c3 54 75 0c c3 34 22 1d be 98 35 8d bd
       -244.4879 -140.45831 -0.15345079 -0.06894988
000150 af aa c0 c2 2c fa 0d 3e ea 29 df c2 ad a1 71 c3
       -96.33337 0.13864964 -111.58186 -241.63155
000160 7a b9 69 c3 52 14 6f 3e 03 7a 0a c0 ac 59 2b 3e
       -233.72452 0.23347595 -2.163697 0.16733426
000170 68 d5 e5 bd d5 c3 9a c3 d4 38 b0 3d 2c ab ce bf
       -0.11222345 -309.52994 0.08604589 -1.6145988
000180 3e 34 72 be 10 b5 1b bd 64 74 bb 3d 50 38 b6 bd
       -0.23652741 -0.03801447 0.09153059 -0.088974595
000190 e0 fb 5a be a0 38 d3 bd 2c 5d c5 bd 28 c9 4e 3d
       -0.21385145 -0.10313535 -0.09636912 0.050484806
0001a0 e8 81 92 bd 9e 4e 47 be a0 45 a8 bc ce 2d 13 be
       -0.07153684 -0.19463584 -0.020541012 -0.14372942
0001b0 de b5 5b 3e 20 c7 86 bc 08 b0 e6 3d 5a e3 43 be
       0.21456096 -0.016452372 0.11264044 -0.19129696
0001c0 af f9 4d c1 7a 61 e8 c0 18 11 4d 3e 88 0f 22 bd
       -12.873458 -7.261899 0.20026052 -0.039565593
0001d0 21 b1 9b c0 fc ff 7e 3e d6 99 b0 c0 19 c9 46 c1
       -4.865372 0.24902338 -5.518779 -12.424096
0001e0 6f fa 44 c1 50 15 c8 3d fb 4f 20 3e 73 81 3d 3e
       -12.311141 0.0976969 0.1565551 0.18506412
0001f0 d8 aa 39 bd 84 5c 81 c1 36 fa 64 3e ea 37 e5 bb
       -0.045328945 -16.170174 0.22361073 -0.006995191

bias f4 [8]
000000 fc 3b 3b be 0e f8 07 be 0b 82 bf be 9f 23 c5 c1
       -0.18284601 -0.13278219 -0.37403902 -24.642393
000010 99 e1 0f be f3 0a 9e c1 92 35 45 be bb 8e 76 bf
       -0.14050902 -19.755346 -0.19258717 -0.9631154

weight f4 [1, 8]
000000 ab ee 35 40 04 b9 1c 3f b1 16 d8 3f 90 95 7e c3
       2.8426921 0.6121981 1.6881925 -254.58423
000010 a2 d4 58 3e 5c 75 dd c1 b9 76 f9 3d ff 39 7d c2
       0.21174863 -27.682304 0.12180848 -63.306637
