regression.pt (torch, 3688 bytes, 3 tensors)

weight f4 [5, 2]
0	0xbf13fc9d	-0.5780733
1	0xbf243a22	-0.64151204
2	0xbec224ab	-0.379186
3	0x3dc7f069	0.097626515
4	0x3def9315	0.116979755
5	0xbf2f38a8	-0.68445826
6	0xc07a26e9	-3.908625
7	0xc07d3669	-3.956446
8	0xbf0f6c27	-0.560244
9	0xbf53714f	-0.8259477

bias f4 [5]
0	0xbde7eec8	-0.11324841
1	0xbf296c2c	-0.6618068
2	0xbeb58da1	-0.35459617
3	0xbf7af965	-0.98036796
4	0x3e8b609c	0.27222145

weight f4 [1, 5]
0	0x3e8fe26b	0.2810243
1	0x3e94daec	0.29073274
2	0x3db777c5	0.08958391
3	0x400b4c76	2.1765418
4	0x3f0f71a6	0.5603279
