models/saved/1_2222.pth (torch, 528008 bytes, 4 tensors)

pytorch_layers.1.weight f4 [32, 1, 3, 3]
0	0x3e6706ca	0.22561184
1	0xbe33a76e	-0.17544338
2	0xbe918a63	-0.28425893
3	0xbca607c0	-0.020267367
4	0x3d41f488	0.047352344
5	0xbdbf405c	-0.093384475
6	0xbe8fa59f	-0.28056046
7	0x3ea0ddd9	0.31419256
8	0xbe664a3e	-0.22489259
9	0x3e6296a2	0.22127774
10	0x3d2039f8	0.039117783
11	0x3cf32ad0	0.0296835
12	0x3e43f0de	0.19134852
13	0xbe83590b	-0.25653872
14	0x3ea54159	0.3227642
15	0xbc6c38a0	-0.014417797
16	0xbc18cb00	-0.009325743
17	0x3e2af802	0.1669617
18	0xbd740b58	-0.05958113
19	0x3e4f89e2	0.20267442
20	0x3d8d79e4	0.069080144
21	0x3e07b468	0.13252413
22	0xbe8fcc7c	-0.28085697
23	0xbe5ba88b	-0.21451013
24	0x3d73ac68	0.05949059
25	0x3ea2879d	0.3174409
26	0x3e80d41d	0.2516183
27	0xbda0d430	-0.078529716
28	0xbe330608	-0.1748277
29	0x3da67f4c	0.08129749
30	0x3d9ae930	0.07564008
31	0xbe3200f6	-0.17383179
32	0xbe3b7d0e	-0.18309423
33	0xbea39d3e	-0.31955904
34	0xbe22b4fe	-0.15889356
35	0xbd529700	-0.051413536
36	0x3dc6555c	0.0968425
37	0xbe33c8db	-0.17557089
38	0xbea1798c	-0.31538045
39	0x3ea3a4f5	0.3196179
40	0xbd986ec4	-0.07443002
41	0x3d5a12a8	0.05324045
42	0xbea4bc52	-0.32174927
43	0xbdf970a0	-0.12179685
44	0xbd8ac594	-0.06775966
45	0xbe842862	-0.2581206
46	0xbe9450da	-0.28967935
47	0xbea890dc	-0.3292302
48	0x3e75f62a	0.24019685
49	0x3c9202c0	0.017823577
50	0x3de9f3d0	0.11423457
51	0xbe6b0fbe	-0.22955224
52	0x3e3c1ede	0.1837115
53	0x3e626332	0.22108153
54	0xbe14162b	-0.14461581
55	0xbd92bddc	-0.07165119
56	0x3d84c6e0	0.06483245
57	0xbdc70950	-0.09718573
58	0x3e9d58ef	0.30731913
59	0x3dee42f4	0.11633864
60	0xbd756ab8	-0.059916228
61	0x3e2b5022	0.16729787
62	0xbe3bfb50	-0.18357587
63	0x3e2004be	0.15626809
64	0x3e21d0fe	0.1580238
65	0x3e31408a	0.17309776
66	0x3e9159c7	0.28388807
67	0x3e02b276	0.1276339
68	0xbd98145c	-0.07425758
69	0xbe1b33db	-0.151565
70	0xbe6bee96	-0.23040232
71	0xbdfee87c	-0.124466866
72	0x3dd2ce90	0.10293305
73	0xbe26a256	-0.16272864
74	0xbc97d210	-0.018532783
75	0x3dacc064	0.08435133
76	0xbe4d483b	-0.20047085
77	0xbe2d938e	-0.16950819
78	0x3cd2cb80	0.025731802
79	0xbde64340	-0.11243296
80	0x3e8c377d	0.27386084
81	0x3e835d01	0.25656894
82	0xbe23a363	-0.15980296
83	0x3e9b3271	0.3031192
84	0xbe638e68	-0.22222292
85	0x3e95e735	0.2927796
86	0xbe734ed0	-0.23760533
87	0xbe7968b8	-0.24356353
88	0xbe152f68	-0.14568865
89	0xbe5304db	-0.20607321
90	0x3e64c186	0.22339448
91	0xbe055b83	-0.1302319
92	0x3dc4fcb4	0.09618512
93	0xbe105293	-0.14094
94	0xbe99377e	-0.2992515
95	0xbe0a3f18	-0.13500631
96	0x3e7220a2	0.23645261
97	0x3b944bc0	0.0045256317
98	0x3cfc8210	0.030823737
99	0x3e75a90a	0.23990265
100	0xbdb4ab6c	-0.08821759
101	0x3dd00774	0.101576716
102	0xbe4f904e	-0.20269892
103	0x3e907de9	0.28221062
104	0xbd9d3d30	-0.07677686
105	0x3e0a38ca	0.13498226
106	0xbe38de7b	-0.1805362
107	0xbe240776	-0.16018471
108	0x3e2fbde6	0.17162284
109	0xbe946157	-0.28980514
110	0x3d3c4e00	0.045972824
111	0xbe0daddb	-0.13835852
112	0xbe288c50	-0.16459775
113	0x3db0b254	0.086277634
114	0xbe87cd86	-0.2652399
115	0xbe65685e	-0.22403094
116	0x3ea402cb	0.3203338
117	0xbe46f22e	-0.19428322
118	0x3c852a30	0.016255468
119	0x3ddadf4c	0.10687122
120	0x3e96f3c5	0.29482856
121	0x3e84cb29	0.2593625
122	0xbe9bb878	-0.30414176
123	0x3e5874be	0.21138284
124	0xbd851ef4	-0.065000445
125	0xbe0f50d8	-0.13995683
126	0x3caeaf70	0.02132389
127	0x3e8788a1	0.26471427
128	0xbe09c4be	-0.13453957
129	0xbdffaeec	-0.124845356
130	0xbe1802d8	-0.14844835
131	0x3e602b26	0.2189146
132	0xbe5dee53	-0.21672945
133	0x3c046320	0.008080274
134	0x3ea04633	0.31303558
135	0xbe55f866	-0.20895538
136	0xbb1fd400	-0.0024387836
137	0x3dbaa70c	0.09113893
138	0x3dc2a67c	0.095044106
139	0xbe060fc8	-0.13091958
140	0xbe9bb68f	-0.3041272
141	0x3d94a650	0.07258284
142	0x3e98ffe3	0.29882726
143	0x3e5a7a22	0.21335652
144	0x3e8308f9	0.25592783
145	0x3d891f2c	0.06695399
146	0x3e6b17aa	0.22958246
147	0xbda633e0	-0.08115363
148	0x3e8730b7	0.26404354
149	0xbe9c78a7	-0.305608
150	0xbd3f35e8	-0.04668227
151	0x3e2d3dc2	0.1691809
152	0xbe3a1818	-0.18173254
153	0xbe64fd78	-0.22362316
154	0xba9ceb00	-0.0011971891
155	0x3e7cd866	0.24691924
156	0x3e14ccaa	0.14531198
157	0xbe6d4cce	-0.2317383
158	0x3e2a0be2	0.16606095
159	0xbd4e4058	-0.05035433
160	0xbea0d3ff	-0.3141174
161	0xbe2ca908	-0.16861355
162	0xbdfb36dc	-0.12266323
163	0x3dfcd6d4	0.12345663
164	0x3e81b239	0.25331286
165	0x3e0238c2	0.12716964
166	0x3ea4eeed	0.32213536
167	0x3ea3fbc5	0.32028022
168	0x3dd24a90	0.10268128
169	0xbe6b3ace	-0.22971651
170	0x3c35d060	0.011097044
171	0x3e6aed12	0.22941998
172	0xbe974d62	-0.29551226
173	0xbe221943	-0.15829949
174	0xbe972f96	-0.29528493
175	0xbe77cd18	-0.24199331
176	0xbc3b1a60	-0.0114198625
177	0x3e97f637	0.29680035
178	0x3dd70b4c	0.105002016
179	0x3ddd5554	0.10807291
180	0xbd978980	-0.07399273
181	0x3e7d8ee2	0.24761537
182	0xbe90e95c	-0.2830304
183	0xbe85564a	-0.26042396
184	0xbe09f75e	-0.1347327
185	0xbe9e31f2	-0.3089748
186	0x3dcafe30	0.09911764
187	0x3dd4abbc	0.10384318
188	0xbe40be1e	-0.18822524
189	0x3e8a0b97	0.26961967
190	0x3d713a28	0.058893353
191	0x3e61ab2a	0.2203795
192	0xbd94c7ac	-0.07264647
193	0x3e4dadc2	0.20085815
194	0x3e5c41fa	0.21509543
195	0x3e596c72	0.21232775
196	0x3e7db14a	0.24774662
197	0x3d84e560	0.06489062
198	0xbe36cc5b	-0.17851393
199	0x3cf24cd0	0.029577643
200	0xbea316a3	-0.31853208
201	0x3e9f378d	0.3109707
202	0xbe4eb7c6	-0.20187292
203	0xbdc53a96	-0.09630315
204	0x3e6c0042	0.23046973
205	0xbde4c416	-0.11170213
206	0x3d91c154	0.071169525
207	0x3e9d5e99	0.30736235
208	0x3d62c1d8	0.055360645
209	0x3e330972	0.17484072
210	0xbcad0130	-0.02111873
211	0xbea100d0	-0.31445932
212	0x3e804e81	0.25059894
213	0xbd2b3d38	-0.04180643
214	0x3e641892	0.22274998
215	0x3e3aba02	0.18235019
216	0x3e95768f	0.29192016
217	0x3e024ece	0.12725374
218	0x3e1ab5ae	0.15108368
219	0x3e910c57	0.28329727
220	0x3e094062	0.13403466
221	0xbe12ae70	-0.14324355
222	0x3e51dd8a	0.20494667
223	0xbe28de46	-0.1649104
224	0xbe627350	-0.221143
225	0x3e98ff63	0.29882345
226	0x3c2e0e20	0.010623485
227	0x3e5a2586	0.21303377
228	0x3d1169a0	0.035501122
229	0x3e6e6c9a	0.23283616
230	0xbe0be5ab	-0.1366183
231	0x3e2fbb4e	0.17161295
232	0x3d7fc1f8	0.062440842
233	0x3e30ad0a	0.17253509
234	0x3dfb3054	0.12265077
235	0x3defc3ac	0.11707243
236	0x3e3f789e	0.18698356
237	0x3e8a6ca9	0.27036026
238	0xbea2f233	-0.31825408
239	0xbd1759f8	-0.036951035
240	0x3e5840ae	0.21118423
241	0xbe804066	-0.25049132
242	0xbc7fe580	-0.015618682
243	0x3d05eb98	0.032695383
244	0x3e813f23	0.25243482
245	0xbd63d5c0	-0.05562377
246	0x3c2699a0	0.010168463
247	0x3d5c5a58	0.053797096
248	0xbe6094a3	-0.219317
249	0xbe768f86	-0.24078187
250	0xbea6ddba	-0.3259104
251	0x3e9a0bb5	0.30087057
252	0xbcc52910	-0.024067432
253	0xbe89219f	-0.26783463
254	0xbe7ffd9b	-0.24999087
255	0xbe02bd18	-0.12767446

pytorch_layers.1.bias f4 [32]
0	0xbe0dbb1b	-0.13840906
1	0xbe86e9b2	-0.2635017
2	0xbdac73ec	-0.08420548
3	0x3d227048	0.03965786
4	0x3df20b64	0.11818579
5	0x3e945821	0.28973487
6	0x3dd27fe0	0.102782965
7	0xbe0ed850	-0.13949704
8	0xbb2c2580	-0.002626747
9	0xbbc7cd40	-0.0060974658
10	0xbe85ea9b	-0.26155552
11	0xbe53eefe	-0.20696637
12	0x3c56c580	0.013108611
13	0xbd962364	-0.07330969
14	0x3e7ac332	0.24488524
15	0x3dee5610	0.11637509
16	0x3ea767ef	0.32696483
17	0x3e96a1eb	0.2942041
18	0xbcc6ef80	-0.024284124
19	0x3da2ff50	0.07958853
20	0x3e623242	0.22089484
21	0x3e04141a	0.12898293
22	0x3e0e98fa	0.13925543
23	0xbda06164	-0.07831076
24	0x3d579ec8	0.05264166
25	0x3dd43f00	0.10363579
26	0x3dd271d4	0.10275617
27	0xbe7cf358	-0.24702203
28	0xbe294236	-0.16529164
29	0xbe44506b	-0.19171302
30	0x3e9e41f1	0.30909684
31	0x3cec0e00	0.02881527

pytorch_layers.2.weight f4 [128, 1024]
0	0x3ca30e4e	0.019904282
1	0xbce64a6a	-0.028111655
2	0xbcf84272	-0.030305121
3	0x3bd81680	0.006594479
4	0x3c98fd12	0.01867536
5	0xbcac1210	-0.021004707
6	0x3c421d14	0.011847753
7	0x3c3cdcec	0.011527281
8	0xbc428fb0	-0.011875078
9	0x3cc1f406	0.02367593
10	0x3c99e59a	0.01878624
11	0xbaac24a0	-0.0013133474
12	0x3c406b98	0.011744402
13	0x3cb7173a	0.022349942
14	0x3cafb518	0.021448657
15	0x3c8692a8	0.016427353
16	0x3a9970a0	0.0011706538
17	0xbca0fae4	-0.019650884
18	0x3cd560d8	0.026047155
19	0x3cf39304	0.029733188
20	0x3bac8828	0.0052652545
21	0x3c4d1b00	0.012518644
22	0x3c9a1050	0.018806607
23	0xbab99c80	-0.001416102
24	0xbc1003a0	-0.008789927
25	0x3cd44a58	0.025914356
26	0xbc25e3d4	-0.010125119
27	0x3b263c00	0.0025365353
28	0xbc889c86	-0.016676199
29	0x3ce1c68c	0.027560495
30	0xbc07fd60	-0.008300155
31	0x3a937d80	0.0011252612
32	0xbc8d468c	-0.017245553
33	0x3a0a4380	0.00052743405
34	0xbc6268b8	-0.013818912
35	0xbb8aba70	-0.004233651
36	0xbc3c98b0	-0.011511013
37	0x3cc47352	0.02398077
38	0x3c82a538	0.015947923
39	0x3b0910f0	0.0020914637
40	0x3c58723c	0.013210829
41	0x3bc082c0	0.0058749616
42	0xbbf43c18	-0.007453453
43	0xbcfca7a8	-0.030841663
44	0xbc7ae194	-0.015312571
45	0xbcfbee48	-0.03075327
46	0x3c9959a2	0.018719498
47	0x3cfa0d36	0.030523878
48	0x3c9e9050	0.019355923
49	0xbbd134f0	-0.0063844845
50	0x3c0fff28	0.008788861
51	0x3ce6a450	0.028154522
52	0x3a2386c0	0.0006238036
53	0xbc108b88	-0.008822329
54	0x3bbb9250	0.005724229
55	0x3c953c2c	0.018217169
56	0xbbb88320	-0.0056308657
57	0x3ce30eb8	0.02771698
58	0x3c9169a8	0.017750576
59	0x3a1494c0	0.00056679174
60	0x3a4220c0	0.0007405393
61	0x3bd1da20	0.0064041764
62	0xbc059edc	-0.008155551
63	0x3cdc907c	0.026924364
64	0x3c77c82c	0.015123408
65	0xbc2ec84c	-0.010667872
66	0x3cc47d7e	0.02398562
67	0x3cb2edd6	0.021841925
68	0x3c3ff99c	0.011717226
69	0x3c512bdc	0.012766805
70	0xbcf386ec	-0.029727422
71	0x39f1b280	0.00046100095
72	0xbc3256b4	-0.010884929
73	0xbc72fddc	-0.014831033
74	0x3cf696ba	0.030101169
75	0xbcdd49e8	-0.02701278
76	0xbcdee214	-0.027207412
77	0xbc5f070c	-0.01361252
78	0xbca52e6c	-0.020163737
79	0xbcfd0248	-0.030884877
80	0xbc476150	-0.012169197
81	0x3ce9ebc6	0.028554808
82	0x3aa26700	0.0012390316
83	0x3cb332c0	0.021874785
84	0x3c6fb598	0.014630698
85	0x3c91be02	0.017790798
86	0x3b83bb98	0.0040201657
87	0x3b3c6670	0.002874758
88	0xbc0b9b24	-0.008520875
89	0xbc93e186	-0.018051874
90	0xbcb784f2	-0.02240226
91	0xbb8c68c8	-0.004284952
92	0x3cb8342a	0.022485811
93	0xbcd1a02a	-0.025589067
94	0x3af76e40	0.0018877462
95	0xbc17230c	-0.009224664
96	0x3ca1a2a8	0.01973088
97	0x3ba6a7f0	0.0050859377
98	0xbcee036c	-0.029054366
99	0xbb8ba4d0	-0.0042615905
100	0xbca30c00	-0.019903183
101	0x3bdccb50	0.006738104
102	0x3b8e1400	0.0043358803
103	0x3ce4c210	0.027924567
104	0x3c459804	0.012060169
105	0x3ac1d900	0.0014789402
106	0x3c1c8340	0.009552777
107	0x3c7fd5d8	0.015614949
108	0xbce00732	-0.027347181
109	0xbcefa362	-0.029252712
110	0x3c8d9b9c	0.017286114
111	0x3c1f2ae4	0.009714816
112	0xbc085620	-0.008321315
113	0xbcd115f8	-0.02552317
114	0xbb316020	-0.0027065352
115	0xbbb7ef70	-0.00561326
116	0x3cf3c6bc	0.02975785
117	0x3c8ebc0a	0.017423648
118	0xbc9098c2	-0.017650966
119	0xbceef17c	-0.029167883
120	0x3cad5a28	0.021161154
121	0xbbd109d0	-0.0063793436
122	0x3cfce378	0.030870184
123	0xbc9be732	-0.019031141
124	0x3ce4c7fe	0.027927395
125	0x3c02f56c	0.007993083
126	0xbb843588	-0.0040347017
127	0x3c11c764	0.008897636
128	0x3b2b3140	0.0026121885
129	0xbc7e0074	-0.015503038
130	0x3c5dc838	0.013536505
131	0xbc56cf88	-0.013111003
132	0x3c9f5a12	0.019452129
133	0xbc8681d0	-0.016419321
134	0x3ce0daa2	0.027448002
135	0xbb234300	-0.0024911761
136	0xbc5d22d0	-0.0134970695
137	0x3cf8ce90	0.030371934
138	0x3c64caac	0.013964336
139	0xbcd6c7cc	-0.026218317
140	0xbc54a1b4	-0.012978006
141	0x3c136294	0.008995671
142	0xbb4ca830	-0.0031228177
143	0xba7f97c0	-0.00097500905
144	0x3cdc7ed6	0.026915949
145	0x3bdf4148	0.006813202
146	0xbcf02362	-0.029313747
147	0xbc6e54fc	-0.014546629
148	0x3c8dcc98	0.017309472
149	0xbc0211d0	-0.007938817
150	0x3c750e98	0.014957093
151	0xb81af000	-3.693998e-05
152	0xbcd3867a	-0.02582096
153	0x3bba5848	0.0056867935
154	0xbcdcba84	-0.026944406
155	0x3ccba234	0.024857618
156	0x3bdbcf40	0.0067080557
157	0xbcf42d9e	-0.029806908
158	0xbcca7bee	-0.024717297
159	0x3cf2436a	0.029573161
160	0x3ced92e2	0.029000703
161	0x3b9ed2f8	0.004846927
162	0xbcf36796	-0.02971248
163	0xbce9d056	-0.028541725
164	0x3bdbb050	0.0067043677
165	0xbcc13f86	-0.02358986
166	0xbc824494	-0.015901841
167	0xbb6756e0	-0.0035299584
168	0x3c810b30	0.015752405
169	0xbb775760	-0.0037741289
170	0xba7f8780	-0.0009747669
171	0x3cbf40d8	0.02334635
172	0xbb8f1100	-0.00436604
173	0xbcf57716	-0.029964011
174	0x3c3510bc	0.011051353
175	0x3c425508	0.011861093
176	0x3c3397f0	0.010961518
177	0x3b95ed18	0.004575383
178	0x3ca92232	0.020646188
179	0xbb93d1f8	-0.004511114
180	0x3ab89300	0.0014081895
181	0xbcf944d4	-0.030428328
182	0xbc75685c	-0.0149784945
183	0x3cfb98f0	0.030712575
184	0x3ae67960	0.001758378
185	0x3b7fc2d0	0.003902603
186	0x3c518a14	0.012789268
187	0xb8196c00	-3.6578625e-05
188	0x3be61708	0.0070217885
189	0x3c88ee4a	0.016715188
190	0x3c540c58	0.012942396
191	0xbcef0a9c	-0.029179864
192	0xbba9bea8	-0.0051801987
193	0x3c86258a	0.016375322
194	0xbcbe6276	-0.02324031
195	0x3c3977e0	0.011320084
196	0xbce88736	-0.028384786
197	0xbc5a8be0	-0.013339013
198	0x3b4f9120	0.0031672195
199	0x3cad3026	0.021141123
200	0x3ca56674	0.020190455
201	0x3cab1a4e	0.020886566
202	0x3bc372e0	0.005964622
203	0x3b89da38	0.004206922
204	0xbc9249c2	-0.017857436
205	0x3c85724e	0.016289856
206	0x3cd21d54	0.02564875
207	0x3bf226e0	0.007389888
208	0x3ce00624	0.027346678
209	0x3b30b8e0	0.0026965663
210	0x3ba44450	0.0050130263
211	0xbcba0630	-0.022708029
212	0xbb8586d0	-0.004074909
213	0x3befe198	0.007320594
214	0x3c0f1908	0.008733995
215	0xbc4bc774	-0.01243769
216	0xbccc4678	-0.024935946
217	0xbc79eb58	-0.015253864
218	0x3c05d63c	0.008168753
219	0xbc97daea	-0.018537004
220	0xbc9c50fa	-0.019081581
221	0xbc679960	-0.014135689
222	0x3c6f1bf0	0.014594063
223	0x3c8e0f12	0.01734117
224	0xbcb43278	-0.021996722
225	0x3ca6d478	0.020364985
226	0xbc81f7fa	-0.015865315
227	0x3cb7f5dc	0.022456102
228	0x3cca3124	0.024681635
229	0xbc221484	-0.009892587
230	0xbc8b86ba	-0.017032016
231	0x3ccc3bd2	0.024930868
232	0x3cbb1c50	0.022840649
233	0x3bffe350	0.00780908
234	0xbc550c10	-0.013003364
235	0xbc618230	-0.013763949
236	0x3c1d2144	0.009590451
237	0x3bed7e50	0.0072477236
238	0xbce8aa44	-0.028401501
239	0xbcba039c	-0.0227068
240	0xbc0685e8	-0.008210637
241	0x3a144bc0	0.00056570396
242	0xbcb1f33a	-0.021722425
243	0xbbaa2448	-0.0051923133
244	0x3c8eda20	0.017437994
245	0x3c6128e0	0.0137426555
246	0xbcfa3b38	-0.030545816
247	0xbced498c	-0.028965734
248	0x3cf21452	0.029550705
249	0x3bcea148	0.0063058473
250	0x3cba35d6	0.02273075
251	0xb8e66600	-0.000109862536
252	0x3c0fdec8	0.0087811425
253	0xbbe65b70	-0.007029943
254	0x3bcdf648	0.0062854625
255	0x3a2b48c0	0.0006533973

pytorch_layers.2.bias f4 [128]
0	0x3cae4a5a	0.021275688
1	0x3b9fe570	0.004879646
2	0x3cc82ca2	0.024435345
3	0x3cd1f85a	0.025631119
4	0xbc7afc30	-0.015318915
5	0x3cc96bb2	0.024587486
6	0x3c3eb01c	0.011638667
7	0xbca0f894	-0.019649781
8	0x3cb6625e	0.022263702
9	0x3cc2a850	0.023761898
10	0xbbb3b1d8	-0.005483847
11	0x3c411654	0.011785109
12	0xbcb5a068	-0.022171214
13	0x3cd779ae	0.026303139
14	0x3c358de8	0.011081196
15	0x3cf4c18c	0.029877447
16	0x3ba26028	0.0049553104
17	0x3cb5dba6	0.022199463
18	0xbc9b6f2a	-0.018973906
19	0xbaffd600	-0.0019518733
20	0x3cabd700	0.020976543
21	0x3ba07908	0.0048972405
22	0xbc04cf14	-0.008106012
23	0xbc12ad3c	-0.008952435
24	0xbc4ced14	-0.012507696
25	0x3b9b5018	0.0047397725
26	0xbc86b92c	-0.016445719
27	0x3a7c4340	0.0009623058
28	0x3cea63f4	0.028612114
29	0xbc8ddce8	-0.01731725
30	0xbcfb9e88	-0.030715242
31	0x3c8db39c	0.017297558
32	0x3ceeca6e	0.02914926
33	0x3cf51998	0.02991943
34	0x3cb56a80	0.02214551
35	0xbcdd4742	-0.027011517
36	0xbad12000	-0.0015954971
37	0xbc59b474	-0.013287652
38	0xbc156098	-0.009117268
39	0xbcc9748a	-0.024591703
40	0x3cfa8a8a	0.030583639
41	0xbb903378	-0.004400667
42	0xba8da840	-0.0010807589
43	0xbcc31800	-0.023815155
44	0xbcbd5a66	-0.023114394
45	0xbcdc55f2	-0.02689645
46	0xbbce1648	-0.006289277
47	0x3cd6fc72	0.026243422
48	0x3cfd79a0	0.030941784
49	0x3cf62b56	0.030049961
50	0xbbaf4f10	-0.005350001
51	0xbc12ad34	-0.008952428
52	0x3b15bb60	0.002284728
53	0x3bc50610	0.0060126856
54	0x3c0855b0	0.008321211
55	0x3c9b5244	0.018960126
56	0xbb7a6ea0	-0.003821291
57	0x3bfb7928	0.007674355
58	0x3caf4ec4	0.021399863
59	0xbb6021b0	-0.0034199767
60	0xbcb6e258	-0.022324726
61	0x3c068fe4	0.008213017
62	0x3cd6569a	0.026164342
63	0x3cd81658	0.026377842
64	0xbcaf366a	-0.021388251
65	0xbc8a6e24	-0.016898222
66	0xbb336020	-0.0027370527
67	0xbcb57e1e	-0.022154864
68	0xbc707fa0	-0.014678866
69	0xbcf538ee	-0.029934373
70	0x3c3cac28	0.011515655
71	0x3c56c40c	0.013108265
72	0xbb509ff0	-0.0031833611
73	0xbc055cb8	-0.008139782
74	0x3ba43cc8	0.0050121285
75	0x3b277410	0.0025551356
76	0xbc5e7ce8	-0.013579585
77	0xbc5e2218	-0.013557933
78	0xbc2bd70c	-0.010488283
79	0x3b9ec228	0.0048449226
80	0x3afa36c0	0.0019089803
81	0xbcfca4fa	-0.030840386
82	0x3bfa3fe8	0.0076370127
83	0xbcb8b1ac	-0.022545658
84	0xbcce407a	-0.02517723
85	0x3cd9c0fa	0.026581276
86	0xbc509f00	-0.012733221
87	0x3cf7f2e2	0.030267183
88	0xbce1a628	-0.02754505
89	0xbcd9aa7e	-0.026570555
90	0x3be97a68	0.0071251877
91	0xbcc9f5a0	-0.024653256
92	0xbc2065b8	-0.009789877
93	0x3c735668	0.014852144
94	0x3ce8166a	0.028331
95	0x3cb5467a	0.022128332
96	0xbb8bc310	-0.0042651966
97	0xbcac9b76	-0.021070223
98	0x3c0ea2f8	0.008705847
99	0xbc2ad624	-0.010427032
100	0xbced16fc	-0.028941624
101	0xbb69f100	-0.0035696626
102	0xbc8b9a98	-0.01704149
103	0xbc849212	-0.016182933
104	0xbcef468e	-0.029208448
105	0x3cb0ce92	0.021582875
106	0x3c9fb768	0.019496635
107	0xbb8c3ea0	-0.0042799264
108	0x3ccb01ca	0.024781127
109	0xbbe188f8	-0.006882783
110	0xbc8d5404	-0.017251976
111	0xbc9dc574	-0.019259192
112	0xbc4c6918	-0.012476228
113	0x3c7350e4	0.014850829
114	0xbc74e9a0	-0.014948279
115	0x3c2c9fe8	0.0105361715
116	0x3c2e503c	0.010639247
117	0x3cf2e962	0.029652301
118	0x3baebb58	0.0053323917
119	0x3cb933e8	0.022607759
120	0x3c563c78	0.01307594
121	0xbcb02968	-0.021504119
122	0x3ce4d7dc	0.027934961
123	0x3c4789dc	0.012178864
124	0x3cdb80dc	0.026794843
125	0x3c07e4fc	0.00829434
126	0x3cc1b1c0	0.023644328
127	0x3c2ff640	0.010739863
