models/saved/1_user2.pth (torch, 528144 bytes, 4 tensors)

pytorch_layers.1.weight f4 [128, 1024]
0.0127687715 -0.0060009398 -0.005812403 0.0045582093 0.021778379 0.029527105 -0.017913248 -0.005080603
0.016237807 -0.02323515 -0.018656403 0.003572885 0.013430841 -0.008976892 -0.023316037 0.013921596
-0.0211914 -0.011624757 -0.023600686 -0.025980625 0.027248714 0.02454406 -0.027627937 0.0044561327
-0.0016870052 -0.030507598 -0.012244958 0.018458687 0.022007916 -0.023975868 0.0038410537 -0.002993729
0.0013396554 0.0013286546 0.005086899 -0.02896225 0.00342213 -0.020399336 -0.0199491 0.00035168976
-0.029390123 0.004305586 -0.021165881 -0.0038172565 0.016070142 0.0056428015 -0.01774064 0.016360447
-0.0057518 -0.024264283 -0.016784843 0.027231172 6.611645e-05 -0.021129623 0.023908295 -0.0014720336
0.02601657 -0.028546374 -0.011992805 0.00096577033 -0.013031285 -0.0097323805 -0.0013173111 -0.0009252839
-0.029616602 -0.015814256 -0.018576458 -0.014261361 0.0048892535 0.020193305 0.010603901 0.025860649
0.024740104 -0.0045171827 0.009488478 0.027866382 0.029613458 0.0155073255 -0.030918267 -0.030639872
-0.0021631606 -0.01044894 -0.0022663213 0.028670076 -0.020125002 -0.01057208 -0.019185368 0.02926204
-0.012586355 -0.008269418 -0.02666672 0.006810788 0.011820786 -0.014984909 -0.014126819 -0.005038511
0.02344054 0.018626917 0.01764176 0.03095349 -0.015167218 -0.0052965805 0.0060992427 -0.0021955706
-0.022281121 -0.007244382 -0.019675799 0.014635079 -0.005105205 -0.014736708 -0.01673495 0.013157994
0.006823577 -0.030020032 0.012107406 0.002527099 0.022958398 -0.02468 -0.026064366 0.030889325
0.026645835 -0.0062783733 -0.02010746 0.028241612 -0.011669442 0.024696372 -0.027182143 -0.014638025
0.00037082285 0.028428175 -0.002758149 -0.022611048 -0.019085359 0.026057154 0.027853146 0.00032583252
-0.0068761073 0.009079266 -0.023118608 0.028537426 -0.029680103 -0.020819489 -0.026268143 -0.024892755
0.00333374 -0.023300461 0.026336785 0.007848263 -0.013471495 0.01304001 -0.0187817 0.0046563335
0.008521114 0.018954087 -0.0036778226 0.0038169585 -0.008802351 -0.014163643 0.009225361 -0.019635659
0.007336706 -0.018372245 0.020358734 0.016303625 0.010349803 -0.013871536 0.01074104 -0.029557731
-0.0172906 -0.022202827 0.018636651 0.014992621 -0.023279682 -0.00012503192 0.030497134 -0.027834069
0.00661055 -0.020635366 -0.0140517615 0.01621931 -0.00012462959 -0.0064328387 -0.0020769686 0.015121128
0.022097096 0.015560031 -0.012092471 0.02577861 -0.009490911 0.008653209 -0.024641242 0.027976405
0.027051177 0.023640338 0.001204811 0.024907 -0.017022688 -0.024745796 0.003156606 -0.031220272
-0.023448214 -0.005055867 0.024551556 -0.023415439 -0.016949948 -0.017205637 0.008502144 0.01578518
-0.026999123 -0.002137784 0.010027286 -0.021498531 -0.017310936 -0.02122024 0.014442097 0.026348911
-0.011410527 -0.025174621 0.006452877 -0.03018453 -0.022969682 -0.002831608 -0.0034492612 0.023004588
-0.020576652 0.014271934 -0.01730581 -0.0011513568 0.0017091334 0.0046742857 -0.023724802 -0.021561913
-0.010311913 0.020752333 0.023852918 -0.018081773 0.019518856 0.027836844 -0.019292891 0.012743227
0.0003343746 0.019238293 0.008795224 -0.022936355 -0.012930881 0.0024482422 -0.02356913 0.0015630163
-0.0049200878 -0.017433614 0.029782657 -0.0014119297 0.03067657 0.011255171 -0.00027600676 0.011207037
00000000: 1c34 513c 88a3 c4bb f875 bebb 085d 953b
00000010: 9268 b23c d4e2 f13c cebe 92bc 307b a6bb
00000020: 2605 853c a457 bebc 50d5 98bc 1027 6a3b
00000030: 080d 5c3c d013 13bc 4601 bfbc 6817 643c
00000040: 9699 adbc c475 3ebc 3a56 c1bc 52d5 d4bc
00000050: b238 df3c a010 c93c fc53 e2bc c004 923b
00000060: 801e ddba 12eb f9bc 149f 48bc ac36 973c
00000070: f249 b43c 0a69 c4bc 30ba 7b3b 7032 44bb
00000080: 6097 af3a 4026 ae3a 00b0 a63b 3e42 edbc
00000090: d045 603b 821c a7bc 4c6c a3bc 0063 b839
000000a0: 8ec3 f0bc e015 8d3b 1264 adbc f02a 7abb
000000b0: 88a5 833c 40e7 b83b d254 91bc 5806 863c
000000c0: 9879 bcbb e4c5 c6bc 5e80 89bc e813 df3c
000000d0: 00a8 8a38 0818 adbc 54db c33c 40f1 c0ba
000000e0: b420 d53c 16da e9bc 787d 44bc c02b 7d3a
000000f0: 2c81 55bc 9074 1fbc a0a9 acba c08e 72ba
00000100: 849e f2bc e68c 81bc a82d 98bc 7ca8 69bc
00000110: 0836 a03b 6e6c a53c fcbb 2d3c b6d9 d33c
00000120: c2ab ca3c e004 94bb 9075 1b3c 0a48 e43c
00000130: ec97 f23c 7012 7e3c 4e48 fdbc 7800 fbbc
00000140: d0c3 0dbb 0832 2bbc 9086 14bb 82dd ea3c
00000150: 30dd a4bc 8436 2dbc a22a 9dbc f2b6 ef3c
00000160: 0037 4ebc 747c 07bc 2a74 dabc 082d df3b
00000170: f8ab 413c 4483 75bc 2c74 67bc 181a a5bb
00000180: 6006 c03c 7a97 983c 7485 903c 2c92 fd3c
00000190: ec7f 78bc f08e adbb 28dc c73b 90e3 0fbb
000001a0: e686 b6bc 4862 edbb 242f a1bc f8c7 6f3c
000001b0: 9049 a7bb 3c72 71bc bc17 89bc a094 573c
000001c0: 5098 df3b 92ec f5bc 245e 463c b09d 253b
000001d0: 4013 bc3c b62d cabc f084 d5bc 9c0b fd3c
000001e0: 5e48 da3c d0ba cdbb 66b8 a4bc f45a e73c
000001f0: 3031 3fbc 0c50 ca3c 16ad debc 54d4 6fbc
00000200: 006b c239 34e2 e83c 10c2 34bb ce3a b9bc
00000210: e658 9cbc d075 d53c 482c e43c 80d4 aa39
00000220: f850 e1bb 34c1 143c 3c63 bdbc 52c7 e93c
00000230: b023 f3bc a28d aabc 4a30 d7bc e4eb cbbc
00000240: e07a 5a3b 9ce0 bebc 3ec0 d73c 0096 003c
00000250: 8cb7 5cbc c4a5 553c 14dc 99bc 2894 983b
00000260: 249c 0b3c 9a45 9b3c a007 71bb f025 7a3b
00000270: bc37 10bc a00e 68bc f825 173c f6da a0bc
00000280: c068 f03b 6481 96bc 5cc7 a63c 2e8f 853c
00000290: 3892 293c 7045 63bc 30fb 2f3c 0e23 f2bc
000002a0: 04a5 8dbc b4e2 b5bc e4ab 983c 9ca3 753c
000002b0: 08b5 bebc 001b 03b9 20d5 f93c 4604 e4bc
000002c0: 509d d83b 800b a9bc 5c39 66bc 5cde 843c
000002d0: 00af 02b9 90ca d2bb c01d 08bb 9cbe 773c
000002e0: f804 b53c 80ef 7e3c 801f 46bc aa2d d33c
000002f0: c47f 1bbc 30c6 0d3c 6edc c9bc c62e e53c
00000300: 6e9a dd3c 62a9 c13c c0ea 9d3a c409 cc3c
00000310: 2a73 8bbc b2b7 cabc 10df 4e3b a8c1 ffbc
00000320: 7816 c0bc b0ab a5bb 5820 c93c bcd1 bfbc
00000330: 9eda 8abc d6f2 8cbc 944c 0b3c ec4f 813c
00000340: 442d ddbc 101a 0cbb 7c49 243c b01d b0bc
00000350: aacf 8dbc 12d6 adbc 8c9e 6c3c acd9 d73c
00000360: 38f3 3abc 023b cebc a872 d33b 8c45 f7bc
00000370: ea2a bcbc 8092 39bb 000d 62bb 1e74 bc3c
00000380: 5e90 a8bc d4d4 693c eac4 8dbc 20e9 96ba
00000390: 0005 e03a c02a 993b 845a c2bc 9ca2 b0bc
000003a0: 4cf3 28bc cc00 aa3c 3267 c33c 3a20 94bc
000003b0: 02e6 9f3c 180a e43c 200c 9ebc f8c8 503c
000003c0: 004f af39 a099 9d3c d819 103c 06e5 bbbc
000003d0: 0cdc 53bc b072 203b 0c14 c1bc 20de cc3a
000003e0: b038 a1bb f0d0 8ebc c2fa f33c 8010 b9ba
000003f0: 6e4d fb3c 9c67 383c 00b5 90b9 b89d 373c

pytorch_layers.1.bias f4 [128]
-0.027954452 0.008781549 0.028053276 -0.0025582537 0.0039843097 -0.02600132 -0.0035630502 0.0037572235
-0.018147822 -0.02826519 -0.027602326 0.0016422682 0.0052333362 0.026981056 -0.02570916 -0.022666503
0.021473259 -0.007553812 0.0041720383 -0.0144333355 0.0101128295 0.019098323 -0.00037845224 -0.00778668
0.0037538111 0.000254184 -0.014143594 0.00428766 -0.0053068437 0.014252126 -0.008643094 -0.014575914
0.008064549 0.028744537 -0.017261393 -0.019518241 0.015590172 0.02660488 -0.008196011 -0.016658645
-0.011753038 -0.011173602 0.02174506 -0.01564407 -0.021095034 -0.025213256 0.025915258 -0.0044680014
-0.0031852871 -0.028625637 0.01642751 0.014977071 -0.017679721 -0.01048369 -0.012349773 0.024950549
-0.009653084 0.031215496 0.013467945 -0.028830934 -0.009118613 0.0139683485 -0.0111363195 0.016189136
-0.022343919 -0.017864741 0.023578156 -0.013600681 -0.030160278 0.029339105 -0.0056823418 -0.02926696
0.020425946 -0.0020358227 0.02659433 0.0039329156 -0.022808976 0.006539058 -0.0036099255 0.013743665
-0.01905024 -0.01598499 -0.0133214295 -0.018180054 0.003986448 -0.019391883 0.007248435 0.014938008
0.019623362 0.020693053 0.006459508 0.015548173 -0.021866705 0.0074812435 0.03030223 0.002048403
0.02338976 0.016966935 0.01292954 0.02631858 -0.00051931664 -0.027193185 0.009071965 0.0010520443
-0.0066126436 0.03007824 0.02872048 0.023287483 0.023598291 -0.0064565837 0.0053127147 -0.02163503
0.008963909 0.018152028 -0.025889583 -0.00047800317 -0.003006123 -0.0011277385 0.016777515 0.016556796
0.02594632 -0.0047050454 -0.015586115 -0.0220621 -0.028105602 0.018651403 0.0096192695 -0.005689401
00000000: bc00 e5bc 7ce0 0f3c fccf e53c 60a8 27bb
00000010: d08e 823b b800 d5bc 1082 69bb c03b 763b
00000020: beaa 94bc 668c e7bc 461e e2bc 6041 d73a
00000030: 687c ab3b 6007 dd3c 049c d2bc 1aaf b9bc
00000040: b0e8 af3c f885 f7bb 98b5 883b cc79 6cbc
00000050: 48b0 253c 1674 9c3c 006b c6b9 6827 ffbb
00000060: 8002 763b 0044 8539 88ba 67bc 807f 8c3b
00000070: 08e5 adbb c081 693c c49b 0dbc d0cf 6ebc
00000080: 2c21 043c aa79 eb3c c467 8dbc b8e4 9fbc
00000090: ec6d 7f3c 7af2 d93c 9048 06bc b677 88bc
000000a0: d08f 40bc 7c11 37bc b222 b23c fe27 80bc
000000b0: 7ecf acbc 088c cebc 3c4c d43c 5068 92bb
000000c0: 40c0 50bb 5080 eabc fc92 863c 6462 753c
000000d0: 10d5 90bc c8c3 2bbc b456 4abc 1865 cc3c
000000e0: f827 1ebc a4b7 ff3c a8a8 5c3c da2e ecbc
000000f0: 3c66 15bc 80db 643c 1c75 36bc 149f 843c
00000100: 980a b7bc 1459 92bc fa26 c13c 64d5 5ebc
00000110: b012 f7bc 9058 f03c f032 babb 44c1 efbc
00000120: 5054 a73c 706b 05bb 5adc d93c b0df 803b
00000130: e4d9 babc 9845 d63b 8094 6cbb 1c2d 613c
00000140: 400f 9cbc f4f2 82bc 2042 5abc 56ee 94bc
00000150: c0a0 823b badb 9ebc 4884 ed3b 8cbe 743c
00000160: 2cc1 a03c 7a84 a93c 48aa d33b c4bd 7e3c
00000170: ce21 b3bc 3825 f53b 623c f83c 803e 063b
00000180: e29b bf3c 3efe 8a3c 6cd6 533c 109a d73c
00000190: c022 08ba 3ec4 debc 94a2 143c c0e4 893a
000001a0: e0ae d8bb a466 f63c 3647 eb3c 64c5 be3c
000001b0: 3451 c13c c091 d3bb 4816 ae3b f23b b1bc
000001c0: 5cdd 123c 90b3 943c 6416 d4bc 809c fab9
000001d0: 6002 45bb a0d0 93ba 0071 893c 1ea2 873c
000001e0: 608d d43c c82c 9abb e85c 7fbc 94bb b4bc
000001f0: b83d e6bc d4ca 983c 249a 1d3c 286e babb

pytorch_layers.2.weight f4 [32, 1, 3, 3]
-0.25437686 -0.13816261 0.14704677 -0.24245958 -0.09732112 0.2997668 -0.09152536 -0.108587116
-0.061802268 0.030834943 -0.017531514 -0.12199199 -0.17839961 0.09304872 -0.22023205 0.098273754
0.1501497 -0.09869687 -0.31307194 -0.13253304 0.11807904 -0.14740491 0.3073853 -0.017883271
-0.12724528 -0.041267514 -0.26004732 0.21184918 0.09466156 0.085956216 0.18826953 0.035335988
-0.13435912 -0.16746676 0.32291093 -0.15453622 0.13448116 0.31507662 -0.25311407 -0.30817243
-0.04751298 -0.26941055 -0.1790187 -0.15431929 0.19691369 -0.32686007 -0.014550328 -0.042190045
0.32757863 -0.29258198 0.31356147 0.007612318 -0.28491813 0.18085757 0.020428538 -0.16463344
0.18405893 -0.21717641 0.23764434 -0.3319434 0.09183684 -0.22650278 -0.27821803 -0.00070282817
0.21788469 -0.010440588 0.28334787 0.29429308 0.115940124 0.22671083 0.032968402 0.28993896
0.17988566 0.16177598 0.23981568 0.17363492 -0.12134513 0.16813806 -0.05928257 -0.029468447
0.119476825 0.24075535 -0.14008026 -0.21908598 -0.18425593 0.29851177 0.2443575 0.22603473
0.28164545 0.29002538 0.15319347 0.042272568 0.015817672 0.022585154 0.27427205 0.28873268
0.00039234757 -0.10910702 0.21665779 0.15711796 0.32022414 -0.04767573 -0.29257557 0.20837018
-0.10410878 0.14714551 -0.18383288 -0.24300727 -0.29106876 -0.2304543 -0.19780497 0.20228174
0.13347164 -0.18933746 -0.024950475 -0.31637782 -0.113606095 0.016569525 -0.19838643 0.18486789
0.27259657 0.3296676 -0.2680615 0.2413204 -0.311624 -0.026220888 -0.3313207 -0.0329282
0.18469086 -0.2502085 -0.22267497 0.20546213 0.100969404 0.10747704 0.15172681 0.30917993
-0.18894748 0.2654387 0.03161618 0.079865426 0.18189362 -0.20962763 -0.040269047 0.22555569
-0.106909394 -0.14116976 0.065078884 0.18955228 0.19604549 0.31564656 -0.25295782 0.2601314
0.29726753 -0.24501777 -0.29076922 0.25648037 0.12042263 -0.05437216 0.00044083595 0.015222162
-0.11704004 -0.054676384 -0.26575327 -0.23884901 -0.069290966 0.26673147 -0.00967598 0.22807375
-0.123363465 0.04833576 -0.2639659 -0.22572844 -0.20817666 0.30614987 -0.22017607 -0.32981285
-0.22574739 -0.02394113 0.118876666 0.31774107 0.21075645 0.30405977 -0.0046364367 -0.024076432
0.29298618 0.24941948 0.24047533 -0.229702 0.3314604 -0.26894057 0.2650322 0.24667147
0.2708607 0.31366625 0.164395 0.0663155 -0.0352104 -0.053454906 0.19435796 -0.050212532
-0.2251364 -0.11892025 0.14647225 0.12923852 0.019085556 0.1379373 -0.31343886 -0.28843522
-0.07195261 0.26788148 0.29242072 0.18094692 0.3125933 0.15368855 -0.09698741 -0.09050572
0.23108128 -0.18536954 0.025996685 0.16989544 -0.22628045 -0.18404846 -0.1902208 -0.16615272
-0.2501493 -0.18968694 0.04429111 0.24152759 -0.2906873 0.16851881 -0.13293211 -0.1751713
0.22081128 -0.2975912 0.123826 -0.10064745 0.047353417 0.32351485 0.015036255 -0.31125772
0.3240961 0.13246867 0.16620788 -0.21183722 0.23124507 0.21784344 0.04052648 -0.27832824
-0.082588226 0.0040938556 -0.0017917156 -0.2822823 -0.16666993 -0.21113214 -0.20069234 -0.10606417
00000000: af3d 82be 807a 0dbe 6e93 163e 5347 78be
00000010: 4c50 c7bd 097b 993e a671 bbbd ec62 debd
00000020: 6024 7dbd 9099 fc3c 409e 8fbc f0d6 f9bd
00000030: 63ae 36be 5490 be3d 8384 61be c043 c93d
00000040: d8c0 193e 9621 cabd f74a a0be beb6 07be
00000050: 6cd3 f13d 50f1 16be 9b61 9d3e f07f 92bc
00000060: 964c 02be 2008 29bd ec24 85be feee 583e
00000070: ecdd c13d d009 b03d bac9 403e 78bc 103d
00000080: 7095 09be 687c 2bbe 9554 a53e be3e 1ebe
00000090: 6eb5 093e b951 a13e 2b98 81be c7c8 9dbe
000000a0: f89c 42bd 2ef0 89be ae50 37be e005 1ebe
000000b0: bea3 493e 345a a7be 8064 6ebc 78cf 2cbd
000000c0: 63b8 a73e 4ecd 95be 218b a03e c070 f93b
000000d0: cae0 91be ba32 393e c059 a73c ab95 28be
000000e0: f279 3c3e 7e63 5ebe 0a59 733e 7cf4 a9be
000000f0: f414 bc3d 58f0 67be 9872 8ebe 003e 38ba
00000100: 2a1d 5f3e 000f 2bbc f912 913e 95ad 963e
00000110: 0472 ed3d e226 683e e009 073d e172 943e
00000120: f233 383e 9aa8 253e 3e92 753e 5acd 313e
00000130: cc83 f8bd 622c 2c3e 48d2 72bd d067 f1bc
00000140: 44b0 f43d 9288 763e 3371 0fbe 1358 60be
00000150: 96ad 3cbe 89d6 983e da38 7a3e a675 673e
00000160: d533 903e 357e 943e c0de 1c3e 0026 2d3d
00000170: 1094 813c 8004 b93c 636d 8c3e c5d4 933e
00000180: 00b4 cd39 8073 dfbd 8adb 5d3e 88e3 203e
00000190: 6bf4 a33e a047 43bd 77cc 95be fe5e 553e
000001a0: fc36 d5bd 50ad 163e b03e 3cbe e6d6 78be
000001b0: f706 95be 36fc 6bbe 638d 4abe f222 4f3e
000001c0: caac 083e aee1 41be f064 ccbc 46fc a1be
000001d0: 50aa e8bd d0bc 873c d025 4bbe 024e 3d3e
000001e0: c791 8b3e 31ca a83e 5b3f 89be b21c 773e
000001f0: 2e8d 9fbe 30cd d6bc dea2 a9be b8df 06bd
00000200: 9a1f 3d3e 541b 80be e804 64be aa64 523e
00000210: 0cc9 ce3d ec1c dc3d 465e 1b3e d54c 9e3e
00000220: 737b 41be 95e7 873e f87f 013d 7c90 a33d
00000230: 5242 3a3e a0a8 56be 28f1 24bd 12f8 663e
00000240: 50f3 dabd ce8e 10be 1448 853d fe19 423e
00000250: 26c0 483e 6d9c a13e b083 81be f12f 853e
00000260: 7333 983e f0e5 7abe b4df 94be 6551 833e
00000270: 24a0 f63d 58b5 5ebd 0020 e739 6066 793c
00000280: b0b2 efbd 58f4 5fbd d010 88be d694 74be
00000290: 6ce8 8dbd 0791 883e 0088 1ebc 2a8c 693e
000002a0: fca5 fcbd b8fb 453d 8a26 87be 5b25 67be
000002b0: 432c 55be adbf 9c3e d675 61be 3bdd a8be
000002c0: 532a 67be 3020 c4bc 9c75 f33d f5ae a23e
000002d0: 8ad0 573e b9ad 9b3e 40ed 97bb f03b c5bc
000002e0: 4902 963e d267 7f3e 2a3f 763e 0037 6bbe
000002f0: 2db5 a93e 94b2 89be 4db2 873e 7297 7c3e
00000300: 41ae 8a3e dd98 a03e 2a57 283e 6cd0 873d
00000310: c838 10bd 88f3 5abd c605 473e a8ab 4dbd
00000320: 288a 66be 768c f3bd d2fc 153e 1a57 043e
00000330: 5059 9c3c 703f 0d3e 0f7b a0be c8ad 93be
00000340: e45b 93bd c327 893e 2bb8 953e 264a 393e
00000350: 3b0c a03e 8860 1d3e 56a1 c6bd 105b b9bd
00000360: 92a0 6c3e 83d1 3dbe 00f7 d43c 12f9 2d3e
00000370: 10b6 67be 3377 3cbe 3ec9 42be f023 2abe
00000380: 9213 80be 4b3d 42be 986a 353d 0253 773e
00000390: f7d4 94be 3290 2c3e 5b1f 08be 1b60 33be
000003a0: 5a1c 623e e05d 98be 7c98 fd3d 4020 cebd
000003b0: a8f5 413d bda3 a53e a05a 763c 2c5d 9fbe
000003c0: edef a53e dea5 073e 6632 2a3e dbeb 58be
000003d0: 82cb 6c3e 5a12 5f3e 18ff 253d 0a81 8ebe
000003e0: 0424 a9bd c025 863b 00d8 eaba 4e87 90be
000003f0: 86ab 2abe 0633 58be 4b82 4dbe 2c38 d9bd

pytorch_layers.2.bias f4 [32]
0.1369709 -0.1215626 0.28245202 0.30965766 0.041541338 0.15162373 -0.020699352 0.24691197
-0.25618958 0.20753673 -0.0071839094 -0.011125684 0.0573664 -0.05910197 0.09749231 0.15020022
-0.22729564 0.11343089 -0.2513073 -0.029880852 0.32251605 0.30866417 0.28188762 -0.14393894
-0.28449568 -0.070451975 -0.024505526 -0.27514678 0.20745817 0.08281958 0.16627142 -0.0116892755
00000000: 1a42 0c3e d0f5 f8bd 8d9d 903e 738b 9e3e
00000010: 4027 2a3d 4043 1b3e b091 a9bc 7ed6 7c3e
00000020: 482b 83be 8284 543e 0067 ebbb 8048 36bc
00000030: 08f9 6a3d e814 72bd 0caa c73d 16ce 193e
00000040: 30c0 68be 744e e83d 5aab 80be b0c8 f4bc
00000050: d320 a53e 3b09 9e3e 9353 903e bb64 13be
00000060: 6ba9 91be 2049 90bd d0bf c8bc 0ae0 8cbe
00000070: ea6f 543e 509d a93d 0e43 2a3e 6084 3fbc
