models/saved/1_user22.pth (torch, 528280 bytes, 4 tensors)

pytorch_layers.1.weight f4 [32, 1, 3, 3]
0	0x3e19259a	0.1495575
1	0xbe550ee6	-0.20806465
2	0x3e77ae5a	0.24187604
3	0x3d3efec8	0.046629697
4	0xbe38f25b	-0.18061201
5	0xbe2f184e	-0.17099115
6	0xbe577a58	-0.21042764
7	0xbd254520	-0.040349126
8	0xbe281443	-0.16413979
9	0x3da94f34	0.0826706
10	0x3c9e1cb0	0.019300789
11	0x3cbcf8d0	0.023067862
12	0xbdb3c590	-0.087779164
13	0xbe7ed7ce	-0.2488701
14	0x3de06cd4	0.10958257
15	0xbe7c5d56	-0.2464498
16	0x3e1105a6	0.14162311
17	0x3d409d58	0.047025055
18	0x3e892197	0.2678344
19	0xbe80648b	-0.25076708
20	0xbe9f23fb	-0.31082138
21	0x3d50bb68	0.050959975
22	0x3d6abdc8	0.057309896
23	0x3ea05909	0.31317928
24	0x3e3da9ea	0.18521848
25	0x3ea55413	0.32290706
26	0x3cc3f110	0.023918658
27	0x3de88050	0.11352599
28	0xbe59f880	-0.21286201
29	0x3de1b27c	0.11020371
30	0xbe6627c0	-0.22476101
31	0x3e4b9622	0.1988149
32	0xbe937403	-0.28799447
33	0x3e53b202	0.20673373
34	0x3e8654dd	0.2623662
35	0x3e93a791	0.2883878
36	0x3e7696fe	0.24081036
37	0xbd4435c8	-0.047902852
38	0xbd2b46e0	-0.04181564
39	0xbe631560	-0.22176123
40	0xbdb6ff36	-0.089353964
41	0x3e95c7ed	0.29254094
42	0x3e3b1a5a	0.18271771
43	0x3e88f6fd	0.26750937
44	0xbe6fb51e	-0.23408934
45	0xbe926da4	-0.28599274
46	0xbe31479e	-0.17312476
47	0xbc45eb00	-0.012079954
48	0x3e24d76a	0.16097799
49	0xbea5a003	-0.32348642
50	0xbd746ea0	-0.059675813
51	0x3d13c748	0.03607872
52	0xbe472fd0	-0.19451833
53	0x3ddc0f24	0.10745075
54	0xbe84fc80	-0.25973892
55	0xbe44806b	-0.19189613
56	0x3d8698b4	0.065720946
57	0x3ea84f2d	0.32872906
58	0x3e5fbc3a	0.21849146
59	0x3e4d3d3e	0.20042893
60	0xbe7a2d1b	-0.24431269
61	0x3da596bc	0.08085391
62	0x3ea3a30d	0.31960335
63	0x3d9400dc	0.072267264
64	0xbb9f8bc0	-0.0048689544
65	0xba262a00	-0.0006338656
66	0xbdf7f820	-0.12107873
67	0x3d784bb8	0.060619086
68	0x3e25f9ba	0.16208544
69	0x3c48df60	0.012260288
70	0xbe81af66	-0.2532913
71	0xbce36bc0	-0.02776134
72	0xbe5ec35b	-0.2175421
73	0xbe4aa34e	-0.19788858
74	0xbdfd0eac	-0.12356314
75	0xbe96cbee	-0.2945246
76	0x3e6f71fe	0.23383328
77	0x3e62814e	0.22119638
78	0x3e8f5b29	0.27999237
79	0xbe129b5b	-0.14317076
80	0x3e88b8b1	0.26703408
81	0xbe9317f2	-0.28729206
82	0xbe60bb83	-0.2194653
83	0x3db7e084	0.0897837
84	0x3e0aabe6	0.13542137
85	0xbe4f93f6	-0.20271286
86	0x3a761000	0.00093865395
87	0x3e3b21ba	0.18274584
88	0xbe41d2b0	-0.18928027
89	0xbea6c68f	-0.32573363
90	0xbda3fb1c	-0.0800688
91	0x3e6a20aa	0.22864023
92	0xbe067adb	-0.13132803
93	0xbe0f808e	-0.14013883
94	0x3e997cc5	0.29978004
95	0xbdab5e2c	-0.08367571
96	0xbe9c4152	-0.30518585
97	0xbe7789db	-0.24173681
98	0x3d8b4ca0	0.068017244
99	0xbe775040	-0.24151707
100	0x3e9e9b0b	0.30977663
101	0xbc5954a0	-0.013264805
102	0xbdc7660c	-0.09736261
103	0x3e966c63	0.29379568
104	0xbe4a5ce8	-0.19762003
105	0xbe6db048	-0.23211777
106	0x3e7c88da	0.2466158
107	0x3e8e098f	0.27741668
108	0xbe2a1703	-0.16610341
109	0xbd158a48	-0.03650883
110	0x3ea3b52b	0.31974158
111	0x3c45e500	0.012078524
112	0x3e3ba1fe	0.18323514
113	0x3e7c0106	0.24609765
114	0xbda5843c	-0.08081862
115	0xbe282e70	-0.16423965
116	0xbea4153f	-0.3204746
117	0x3da35820	0.07975793
118	0x3d285a08	0.041101485
119	0x3e9997cb	0.2999862
120	0xbea8cdae	-0.3296942
121	0xbdf607a0	-0.12013173
122	0xbe0136bb	-0.12618534
123	0x3e0617a0	0.1309495
124	0x3e2ef4da	0.17085591
125	0xbd17f888	-0.037102252
126	0xbddd437c	-0.10803887
127	0x3c212ae0	0.009836882
128	0xbcc11f40	-0.023574471
129	0xbea33a13	-0.31880245
130	0xbe189e4e	-0.14904138
131	0x3d2ac7d8	0.041694492
132	0xbe6dd526	-0.23225841
133	0x3e3b76c2	0.18307021
134	0x3e3c74ea	0.18403974
135	0xbe01c5ee	-0.1267316
136	0xbe8f0392	-0.2793241
137	0x3dd55564	0.104166776
138	0x3e2f6e2a	0.17131868
139	0xbd1337e0	-0.03594196
140	0xbc8927b0	-0.016742557
141	0xbe972d4f	-0.29526755
142	0x3cc285c0	0.023745418
143	0xbd1757c0	-0.03694892
144	0x3e4902d6	0.19629988
145	0x3dd31344	0.10306409
146	0xbe9bcdab	-0.3043035
147	0xbe36ab50	-0.17838788
148	0x3e2c460a	0.16823593
149	0x3debcdc0	0.11513853
150	0xbdf96b1c	-0.121786326
151	0x3cc8c170	0.0245063
152	0xbe7ebf88	-0.24877751
153	0x3e2e3ebe	0.17016122
154	0xbd134820	-0.035957456
155	0x3d7385d8	0.059453815
156	0xbcbc9b70	-0.023023337
157	0x3e5842d2	0.2111924
158	0x3e75658a	0.23964515
159	0xbe0f9190	-0.14020371
160	0xbd82927c	-0.06375596
161	0xbe85c7de	-0.2612905
162	0xbe8c4c00	-0.27401733
163	0x3e984f0f	0.29747817
164	0xbcfd78d0	-0.030941397
165	0xbe414dde	-0.1887736
166	0x3e922673	0.2854496
167	0x3dfdb8e4	0.12388781
168	0x3e0ac138	0.1355027
169	0x3e7e5022	0.24835256
170	0x3d2562f8	0.040377587
171	0xbd9e606c	-0.07733235
172	0xbe8ec828	-0.27887082
173	0x3cb37b10	0.021909267
174	0xbdda8230	-0.106693625
175	0xbdee9ce0	-0.11651015
176	0x3e4a2b5e	0.19743106
177	0x3d8a343c	0.06748244
178	0xbea8789b	-0.32904515
179	0xbde6c726	-0.11268453
180	0xbe39d576	-0.18147835
181	0xbea18b92	-0.31551796
182	0x3d1ce288	0.038301975
183	0xbe90fb8a	-0.2831691
184	0x3e74e8f6	0.23916993
185	0x3e71dd26	0.23619518
186	0x3e2794c0	0.16365337
187	0xbe82c384	-0.25539792
188	0xbe1804c8	-0.14845574
189	0xbdb67266	-0.089085385
190	0x3e630a8e	0.22171995
191	0x3e85e025	0.2614757
192	0x3d4fdcd8	0.050747722
193	0xbe51a766	-0.20474014
194	0xbe721156	-0.23639426
195	0x3e3d6b6a	0.18498006
196	0xbd885bb0	-0.06658113
197	0x3e953249	0.29139927
198	0xbc38c300	-0.01127696
199	0xbd206ea8	-0.03916803
200	0x3d3b1c98	0.045681566
201	0xbd928acc	-0.0715538
202	0x3e93faa5	0.28902164
203	0xbca83e30	-0.020537466
204	0x3dd2a700	0.10285759
205	0xbd39ae58	-0.045332283
206	0xbdbba9a6	-0.09163217
207	0xbe266cbe	-0.1625242
208	0x3e7137ca	0.23556438
209	0xbe05a7f6	-0.13052353
210	0x3d276c08	0.04087451
211	0x3ea459ab	0.3209966
212	0x3e336292	0.1751807
213	0xbd89dd2c	-0.06731638
214	0xbe216356	-0.1576055
215	0xbd4a0520	-0.049321294
216	0xbd403be8	-0.04693213
217	0x3e2a0ca8	0.1660639
218	0x3b12d280	0.00224033
219	0x3d3348b8	0.043770522
220	0xbcfb2970	-0.030659407
221	0x3dc619a4	0.09672859
222	0x3d80c8a4	0.06288269
223	0xbe18f91e	-0.1493878
224	0xbd4d9580	-0.050191402
225	0x3b9a6240	0.0047114193
226	0x3dd9ec60	0.10640788
227	0x3e782be2	0.2423549
228	0xbe6bb6e0	-0.2301898
229	0xbe08ec7b	-0.1337146
230	0xbd55a538	-0.052159518
231	0x3e148948	0.14505494
232	0x3c0d2500	0.0086147785
233	0xbe7c2770	-0.24624419
234	0xbe982946	-0.2971899
235	0xbca8c030	-0.020599455
236	0xbea02443	-0.31277665
237	0xbe613d66	-0.21996078
238	0x3dfd7c70	0.1237725
239	0x3d9050ac	0.07046637
240	0xbd606718	-0.054785818
241	0x3db748a4	0.08949402
242	0xbea6655a	-0.324992
243	0x3e925f3d	0.28588286
244	0xbdeebf20	-0.11657548
245	0xbd58eee8	-0.052962214
246	0xbe3688e6	-0.1782566
247	0xbe0395f3	-0.1285017
248	0xbe2e92eb	-0.17048232
249	0xbdbdd930	-0.09269941
250	0xbea1525f	-0.31508157
251	0xbe7697b0	-0.24081302
252	0xbaab8000	-0.0013084412
253	0x3ea52705	0.32256332
254	0xbe6852fb	-0.22687905
255	0x3e4ff36e	0.20307705

pytorch_layers.1.bias f4 [32]
0	0xbe75b9be	-0.23996636
1	0xbe503ffe	-0.20336911
2	0x3e25a25a	0.16175213
3	0x3e6e7266	0.23285827
4	0xbe43b2d3	-0.19111185
5	0xbe8af203	-0.27137765
6	0x3e44a062	0.19201806
7	0xbe4e4cab	-0.20146434
8	0xbea09ee0	-0.31371212
9	0xbe7d615b	-0.2474417
10	0x3e432c0a	0.19059768
11	0xbea7d7a8	-0.3278172
12	0x3e913771	0.2836261
13	0x3d9bac3c	0.076012105
14	0xbb873c00	-0.0041270256
15	0x3e3c48fe	0.1838722
16	0xbd2b5ad8	-0.041834682
17	0x3c9d8170	0.01922676
18	0xbd80d844	-0.062912494
19	0x3e964b9b	0.29354557
20	0x3e9bc4b1	0.304235
21	0xbe197586	-0.14986238
22	0xbea71a6e	-0.32637352
23	0xbe0ef620	-0.13961077
24	0xbe6915a6	-0.22762164
25	0xbd9e50ec	-0.077302784
26	0xbd71b000	-0.059005737
27	0xbe89b646	-0.26896876
28	0xbe903b34	-0.28170168
29	0xbe55665e	-0.20839831
30	0xbdf4e1c6	-0.11957125
31	0x3de01e30	0.10943258

pytorch_layers.2.weight f4 [128, 1024]
0	0xbcb3175c	-0.021861725
1	0x3c785f24	0.015159402
2	0xbc25864c	-0.01010282
3	0xbc986fae	-0.01860794
4	0xbc9aaef8	-0.01888226
5	0x3c920800	0.01782608
6	0xbab55160	-0.0013833456
7	0x3c89d596	0.016825479
8	0xbc673f58	-0.014114223
9	0x3caa2efa	0.020774353
10	0xbcb13496	-0.02163152
11	0xbcfc3a1c	-0.030789427
12	0xbc24cca8	-0.0100585595
13	0x3c8b95ac	0.017039143
14	0xbc278a08	-0.01022578
15	0xbcffc53e	-0.031221982
16	0x3cf12616	0.029437106
17	0x3b8fe5f0	0.0043914244
18	0x3b16d6d0	0.0023016222
19	0xbc35c660	-0.01109466
20	0xbcc0ea9a	-0.023549367
21	0x3b208190	0.0024491288
22	0x3c393728	0.011304654
23	0x3cf56b50	0.029958397
24	0xbc362bd4	-0.011118848
25	0xbbc41218	-0.0059836023
26	0xbced885c	-0.028995685
27	0x3c31a1ec	0.010841828
28	0xbcd92932	-0.026508901
29	0xbcf4974e	-0.029857304
30	0xbca6114c	-0.02027192
31	0xbc351010	-0.011051193
32	0x3c2b8118	0.01046779
33	0xbc6c0d98	-0.014407538
34	0x3cc18164	0.023621269
35	0x3c3df2ac	0.011593502
36	0xbcaefa48	-0.021359578
37	0x3c973ba4	0.018461056
38	0xbc0155bc	-0.007893976
39	0x3c7d5d18	0.01546409
40	0x3ceeba32	0.02914152
41	0xbc4c40e0	-0.012466639
42	0xbc1c0730	-0.009523198
43	0x3cfe3f0a	0.031035919
44	0x3c3c0ac4	0.011477176
45	0x3a506fc0	0.00079512224
46	0xba480c40	-0.000763122
47	0xbc9dbd30	-0.01925525
48	0xbbb956d8	-0.0056561045
49	0xbcbbdf12	-0.022933517
50	0xbcca152c	-0.024668299
51	0x3cc55e1c	0.024092726
52	0xbc6a22d0	-0.0142905265
53	0xbcb69dde	-0.022292074
54	0x3cfc2174	0.03077767
55	0xbcee6b9a	-0.029104043
56	0x3b385040	0.0028124005
57	0x3cb45c40	0.022016644
58	0xbc484654	-0.012223799
59	0xbbf7bff0	-0.0075607225
60	0xbcac5e30	-0.021041006
61	0xbb9be420	-0.004757419
62	0xbaf42b40	-0.0018628612
63	0x3a80cf40	0.000982739
64	0x3c4d64ec	0.012536269
65	0x3c97d794	0.018535413
66	0x3c9765d6	0.018481176
67	0x3c5e3bc8	0.013564058
68	0x3b5d9cb0	0.0033815317
69	0xbcd9afee	-0.026573148
70	0xbc1bb9f8	-0.009504788
71	0xbb9ed000	-0.004846573
72	0xbcabfe62	-0.020995323
73	0xbccd978a	-0.025096674
74	0xbcad5816	-0.021160167
75	0xbbc502b8	-0.006012287
76	0xbc444268	-0.011978723
77	0x3c3a1d30	0.011359498
78	0x3ca15fe8	0.019699052
79	0xbc68a8cc	-0.014200401
80	0x3bf9a4e8	0.0076185353
81	0x3c89345c	0.0167486
82	0xbc686a70	-0.014185533
83	0x3c65cf7c	0.014026519
84	0xbbc6bc28	-0.0060649104
85	0xbc29a2f8	-0.010353796
86	0xbcf2edba	-0.029654372
87	0x3c204b64	0.0097835995
88	0xbb90ebe8	-0.0044226535
89	0xbcf20d1a	-0.029547263
90	0x3bd6a128	0.006549973
91	0xbb64ca40	-0.003491059
92	0xbb6aa3d0	-0.0035803206
93	0x3bd428c0	0.0064745843
94	0xbcb0c10c	-0.021576427
95	0xbc84a1a8	-0.016190365
96	0xbca142be	-0.019685145
97	0x3cedfce6	0.029051255
98	0xbc98ee62	-0.018668357
99	0xbcf544a2	-0.029939953
100	0x3cf56b8e	0.029958513
101	0x3c97b652	0.018519554
102	0xbc3a1fe0	-0.011360139
103	0xbb9fb970	-0.004874401
104	0xbc544ec8	-0.012958236
105	0x3b9282f0	0.0044711754
106	0x3c9449b4	0.01810155
107	0x3b957c00	0.004561901
108	0xbbf94ac8	-0.0076077916
109	0xbb1d6db0	-0.0024021678
110	0xbcc0c746	-0.023532521
111	0xbc748950	-0.014925316
112	0xbcd38212	-0.025818858
113	0xbc8b502c	-0.017006002
114	0xbb117080	-0.00221923
115	0xbcda7fe8	-0.026672319
116	0x3c665c44	0.014060084
117	0x3ca566ba	0.020190585
118	0x3c971ed4	0.018447317
119	0x3c51b894	0.0128003545
120	0x3cf9ac12	0.030477557
121	0xbca6452a	-0.020296652
122	0x3b454070	0.0030098222
123	0xbc01f8c8	-0.007932849
124	0xbc905d4c	-0.017622612
125	0x3cbf4836	0.023349863
126	0x3b285cd0	0.0025690086
127	0xbcd53758	-0.026027367
128	0x3cd190c8	0.025581732
129	0xbbe1f830	-0.0068960413
130	0x3ce8b864	0.028408237
131	0x3cfd7ece	0.030944254
132	0xbc551348	-0.013005085
133	0x3b3d75a0	0.0028909221
134	0xbc9504f2	-0.018190835
135	0xbcaf401c	-0.021392874
136	0xbcceaa70	-0.025227755
137	0xbb6ab500	-0.003581345
138	0x3ce07e66	0.027404021
139	0x3ca22ca2	0.019796673
140	0xbc815e78	-0.015792117
141	0xbb1e0490	-0.0024111606
142	0x3c7ed3ac	0.015553396
143	0x3c1636c8	0.009168334
144	0x3cc99072	0.02460501
145	0x3b25dcf0	0.002530869
146	0xbbdcd200	-0.006738901
147	0xbcffcdf8	-0.031226143
148	0x3bb72970	0.0055896565
149	0x3b6292f0	0.0034572445
150	0x3bee6ed8	0.007276397
151	0xbbf42068	-0.007450152
152	0xbc5149f4	-0.012773979
153	0xbbd94080	-0.0066300035
154	0x3cf7fe94	0.03027276
155	0xbcdd1c9e	-0.026991185
156	0x3c714100	0.01472497
157	0xbbabf498	-0.0052476637
158	0xbc3df458	-0.011593901
159	0x3b9b4278	0.0047381483
160	0x3ca412ac	0.020028435
161	0xbcb1a6ec	-0.02168604
162	0x3cad4b02	0.02115393
163	0x3b6bdcf0	0.0035989843
164	0x3b8f1970	0.004367046
165	0xbb03e6a0	-0.0020126477
166	0xbc651f28	-0.013984479
167	0xbcee4b22	-0.02908856
168	0x3b9a69e0	0.0047123283
169	0xbc8a0832	-0.016849611
170	0x3c900880	0.017582178
171	0xbcdab984	-0.026699789
172	0x3ca47802	0.020076755
173	0x3b502450	0.0031759925
174	0xbba47160	-0.005018398
175	0xbcc473a2	-0.02398092
176	0xbc94f1fe	-0.018181797
177	0x3cccb6d2	0.02498952
178	0x3b8b8120	0.0042573363
179	0xbc2284a0	-0.009919316
180	0xbab3b360	-0.0013710074
181	0x3c98547e	0.018594977
182	0x3cf20f66	0.029548358
183	0x3c1c2ff0	0.009532914
184	0xbcd8196c	-0.02637931
185	0x3c037ef8	0.008025877
186	0xbb0b3ad0	-0.0021244772
187	0x3aab3be0	0.0013064109
188	0xbba68a30	-0.005082391
189	0xbc1a7ee0	-0.009429663
190	0xbcbf3112	-0.023338828
191	0x3cfee208	0.03111364
192	0xbccf85ee	-0.025332417
193	0xbc7d927c	-0.015476819
194	0xbb1ffb70	-0.0024411343
195	0xbcba547a	-0.02274536
196	0xbcfc1e7e	-0.030776259
197	0xba06f140	-0.00051476434
198	0xba9f8720	-0.0012171008
199	0x3b50ff10	0.003189031
200	0x3a69de00	0.0008921325
201	0x3ccf2640	0.025286794
202	0xbc1646a8	-0.009172119
203	0xbcd666f8	-0.026172146
204	0xbb7d1a00	-0.0038620234
205	0xbc7a13cc	-0.015263509
206	0xbc7f8f4c	-0.0155981295
207	0x3cb13554	0.021631874
208	0xbc14c730	-0.009080693
209	0xbcdc50dc	-0.026894026
210	0xbc747d3c	-0.014922436
211	0xbb516a60	-0.0031954274
212	0xbc9ce050	-0.01914993
213	0x3cb46dd0	0.022025019
214	0x3cff3074	0.031151034
215	0x3ac215c0	0.0014807507
216	0xbcc40986	-0.023930322
217	0xbc17bb9c	-0.009261038
218	0x3c5b0aa4	0.013369236
219	0x3c0eb718	0.008710645
220	0x3c905d40	0.01762259
221	0xbca74606	-0.020419132
222	0x3cbd1a8c	0.023083948
223	0x3c9dc08e	0.019256856
224	0xbcdc92ba	-0.026925433
225	0xbcf4b926	-0.029873442
226	0xbca8f4d0	-0.020624548
227	0xbcf99382	-0.030465845
228	0x3c8f0590	0.017458707
229	0x3c5e0efc	0.013553377
230	0xbbb167f0	-0.0054140016
231	0xbc0b5cd4	-0.008506019
232	0x3b46f080	0.0030355752
233	0xbcb143fe	-0.021638867
234	0x3c1d4e38	0.009601168
235	0x3bfcb9e0	0.0077125877
236	0x3c8a34a0	0.016870797
237	0xbc797ea4	-0.015227947
238	0x3cf374f2	0.02971885
239	0x3c39a680	0.011331201
240	0xbcad2a40	-0.02113831
241	0xbbfb0a70	-0.0076611564
242	0x3cb28954	0.021793999
243	0x3c67b928	0.014143266
244	0x3c98b9ac	0.018643223
245	0xbc462b98	-0.0120953545
246	0xbc294cf4	-0.010333288
247	0x3a72bdc0	0.00092598423
248	0xbcc9316c	-0.024559699
249	0xbccb6942	-0.024830464
250	0xbcfb583e	-0.030681726
251	0xbcec79ca	-0.028866667
252	0xbccda488	-0.025102869
253	0x3b866048	0.004100833
254	0xbc9d4326	-0.019197058
255	0xbc2d4360	-0.0105751455

pytorch_layers.2.bias f4 [128]
0	0xbc8f38d6	-0.017483156
1	0xbc922b38	-0.017842874
2	0x3c8a13a8	0.016855076
3	0xbae658e0	-0.0017574094
4	0x3cce50d6	0.02518503
5	0x3cac9204	0.02106572
6	0xbc39be9c	-0.011336949
7	0xbcb2c34a	-0.021821637
8	0xbcd35594	-0.025797643
9	0x3b9e2108	0.004825715
10	0xbc0eb3cc	-0.008709859
11	0x3c36584c	0.01112945
12	0x3b5251e0	0.0032092258
13	0x3cf873ac	0.030328594
14	0xbb875980	-0.0041305423
15	0x3b3931f0	0.0028258525
16	0x3c96e56a	0.01841994
17	0x3cc41c58	0.023939297
18	0xbc164c5c	-0.009173479
19	0xbcf427b0	-0.02980408
20	0xbb797680	-0.0038065016
21	0xbb4e8230	-0.0031510703
22	0x3bfd8fc8	0.0077380873
23	0x3ccbf2a4	0.024895974
24	0x3ccd4cac	0.025060974
25	0xbcc0b5d6	-0.023524206
26	0xbb4cdb70	-0.0031258725
27	0xbc34fa3c	-0.011045989
28	0x3bbaaeb8	0.0056970976
29	0xbcd16544	-0.025560983
30	0xbcffd2dc	-0.031228475
31	0xbc2d81d0	-0.010590032
32	0xbbca2750	-0.006169237
33	0x3c7022b0	0.014656708
34	0xb8ae8c00	-8.3230436e-05
35	0x3cbc78e0	0.023006856
36	0xbc25b794	-0.010114569
37	0x3ce221ca	0.027604003
38	0xbcf6783a	-0.030086625
39	0x3cbdecaa	0.02318414
40	0xbc7bca1c	-0.015368011
41	0xbcd8e4bc	-0.026476257
42	0xbc120980	-0.008913398
43	0x3aee0d80	0.0018161982
44	0xbcbf230e	-0.023332145
45	0xbc03fcb8	-0.008055858
46	0x3c936c7e	0.017996069
47	0x3c95c41a	0.018281985
48	0x3c80fdc2	0.015746001
49	0xbc4ac0f4	-0.012375105
50	0xbb3e3850	-0.0029025264
51	0xba9baf00	-0.0011877716
52	0xba3d6d40	-0.00072260574
53	0xbc83374a	-0.016017575
54	0xbcef7200	-0.029229164
55	0x3c2eff40	0.0106809735
56	0x3b2418f0	0.0025039278
57	0xbc65bf20	-0.0140226185
58	0x3cbdf15c	0.023186378
59	0xbca61e3c	-0.020278089
60	0x3c28e9bc	0.010309633
61	0xbccd9754	-0.025096573
62	0x3c654150	0.0139926225
63	0x3c006ee0	0.007838935
64	0xbce6b754	-0.02816359
65	0x3c11a13c	0.008888539
66	0xbcd25f2c	-0.025680147
67	0x3c736ad4	0.014857013
68	0xbc587f84	-0.013213996
69	0xbb12bb80	-0.002238959
70	0xbcd55630	-0.026042074
71	0x3c924668	0.017855838
72	0x3c44d360	0.012013286
73	0xbb158e90	-0.002282057
74	0xbc309c08	-0.010779388
75	0xbcdd14cc	-0.026987456
76	0xbccaf4c4	-0.024774916
77	0xbcc816da	-0.024424959
78	0xbc52cd54	-0.012866337
79	0x3b571fe0	0.0032825395
80	0x3c8ff608	0.017573372
81	0x3c057710	0.0081460625
82	0x3a7c1600	0.00096163154
83	0x3c219e7c	0.009864446
84	0x3b8e2fd8	0.0043391995
85	0xbac38aa0	-0.0014918633
86	0xbc947b0c	-0.01812508
87	0xbbb7c4c0	-0.005608171
88	0xbcfc81f2	-0.030823682
89	0xbce1d95a	-0.027569462
90	0x3b850508	0.0040594377
91	0x3a829ae0	0.0009964369
92	0x3c450094	0.012024064
93	0x3cfcb116	0.03084616
94	0x3c2fafb0	0.0107230395
95	0x3c8e2fc0	0.017356753
96	0x3bb0d6a0	0.005396679
97	0x3c904ed0	0.017615706
98	0xbb90d2d0	-0.004419662
99	0x3c4a0354	0.012329895
100	0xbbf8b3d8	-0.0075897984
101	0x3cf890bc	0.030342452
102	0x3bc91b38	0.006137278
103	0x3cc0a924	0.023518153
104	0x3bf61a38	0.0075104497
105	0xbc1591c8	-0.009128995
106	0x3c66b380	0.014080882
107	0xbb2f05d0	-0.0026706345
108	0xbb698360	-0.0035631284
109	0xbcb46822	-0.02202231
110	0xbc97528c	-0.018471979
111	0x3c84cdda	0.016211439
112	0x3cfc4c4c	0.0307981
113	0x3c6423fc	0.013924595
114	0xbc2951cc	-0.010334443
115	0xbcf03542	-0.02932227
116	0x3c8e4b2e	0.017369833
117	0xbb84e760	-0.0040559024
118	0xbb78e9c0	-0.0037981123
119	0xba8d2920	-0.0010769702
120	0x3b3b0110	0.002853457
121	0x3ca63ad6	0.020291727
122	0xbaf2a200	-0.0018511415
123	0xbb466290	-0.003027115
124	0x3cacab78	0.021077856
125	0x3c8b3ea2	0.01699764
126	0x3c75a780	0.014993548
127	0x3cd804f6	0.026369553
