models/saved/2_user3.pth (torch, 528080 bytes, 4 tensors)

pytorch_layers.0.weight f4 [128, 1024]
0.029080585 0.019923713 0.0066365823 -0.02743714 0.028474383 -0.016830463 -0.01936318 -0.028346106
-0.0047805905 0.0060745627 0.022557184 -0.022679314 -0.0109594315 -0.010496154 -0.030228198 0.012123797
-0.02471545 -0.011846155 -0.026748393 0.029504977 0.025708616 -0.004845094 0.006477274 0.004421767
0.0123849735 -0.00041943043 -0.005784422 0.0073907003 -0.011128835 0.009297591 -0.0050348938 0.027763154
-0.0069509447 0.020397231 0.029733509 0.017733395 -0.017726585 -0.011436366 0.014667012 -0.029897414
-0.008054551 -0.017146882 -0.0034157783 0.030861966 -0.023137975 0.025096133 -0.020399135 -0.020769615
-0.029989332 0.006820727 0.023388539 0.01640828 -0.025066718 -0.030439071 -0.015706148 0.019000992
-0.031209681 0.0019114986 -0.02830806 -0.015957162 0.023582462 -0.023218237 -0.02992294 0.016619854
0.0057569854 -0.008851372 0.029284064 -0.016335234 -0.010398593 -0.028250493 -0.028544609 -0.00079372525
0.022026394 -0.009641763 0.02950881 0.014226675 -0.0048052073 -0.0115047805 0.031118788 -0.013243038
0.0070208944 0.016749159 -0.024778508 0.005407557 0.015536718 -0.012559634 -0.023049157 0.03121132
-0.0044959225 0.00352066 -0.011120189 0.002622027 0.01069849 0.003185723 -0.028191477 0.009280246
0.0037483796 0.009130575 0.0006319843 -0.017117523 -0.0018774532 -0.030403495 0.014415372 0.029266201
-0.0053602196 -0.024376236 -0.009678874 -0.028669342 -0.0026688837 0.01785412 8.677319e-05 0.023286846
-0.00067214295 -0.015647128 0.0040258206 0.017921988 0.017659657 0.02500249 -0.023996532 -0.012331683
0.019750278 0.0032327138 0.0009103529 0.029874172 0.026562858 0.015021123 -0.018315177 0.021655343
-0.007008072 -0.0007483065 0.006079644 0.023004785 -0.017402329 -0.015744757 0.020861749 -0.013681281
0.005507022 -0.025179647 0.00056404993 0.020916507 0.005513955 -0.018210921 -0.011783432 -0.025707964
0.01988335 0.024510797 0.022663433 -0.025567144 -0.003980253 -0.010495625 0.01534611 -0.023377046
0.027101334 0.014254905 0.0036025606 -0.027955197 0.0064884685 0.020588685 -0.022936888 0.022355538
-0.0023430064 -0.012119286 0.029937569 0.014327895 0.027789515 -0.0071479045 0.0038265102 -0.026669119
-0.025142573 -0.03087353 0.011744998 -0.012905177 -0.020411748 -0.0060944036 0.00030504912 -0.011514451
-0.02797509 -0.0037727132 -0.014079642 0.028133884 -0.023473673 -0.02277945 -0.0070762374 -0.02850547
0.029642265 0.021450821 0.028917752 0.0017930567 -0.0230827 -0.00516095 0.022775132 -0.015174035
-0.010335881 6.663427e-05 0.004016701 -0.008115903 0.019908402 -0.0042537004 0.00048116967 0.017806455
-0.023472492 0.01565924 0.027968157 0.026166745 -0.005868029 0.0281955 -0.024399556 0.010024086
-0.0045619197 0.011479806 -0.006732978 0.015735306 -0.026438423 0.015394747 7.919222e-05 -0.02218771
-0.014486887 -0.019984514 0.015289739 -0.0077131577 -0.010769833 -0.0076699257 -0.009760603 0.028692186
0.014492143 -0.020999976 0.0218088 -0.01534738 -0.010158017 0.021651171 -0.030505292 0.02280407
0.003655877 -0.01304242 -6.342307e-05 0.0027238727 0.0032793581 0.025635447 -0.010470968 0.011281688
0.026047673 0.013614718 -0.023087706 -0.025433995 -0.011413325 0.00890312 0.009304497 0.0057301894
0.026093565 -0.0062118173 -0.027015217 -0.012235604 0.009453371 -0.008807685 0.021014664 -0.020402268
00000000: 683a ee3c 0e37 a33c b077 d93b dac3 e0bc
00000010: 1c43 e93c 0ae0 89bc 889f 9ebc 1836 e8bc
00000020: 80a6 9cbb 200d c73b d8c9 b83c f8c9 b9bc
00000030: 308f 33bc 10f8 2bbc 20a1 f7bc e4a2 463c
00000040: 0e78 cabc 6016 42bc 721f dbbc 6cb4 f13c
00000050: e09a d23c 98c3 9ebb 503f d43b 78e4 903b
00000060: 58ea 4a3c 00e7 dbb9 408b bdbb b02d f23b
00000070: b855 36bc ec54 183c c0fb a4bb 8e6f e33c
00000080: c0c4 e3bb 1818 a73c b093 f33c a045 913c
00000090: 5837 91bc 985f 3bbc e84d 703c 6ceb f4bc
000000a0: 3cf7 03bc 9e77 8cbc 40db 5fbb 3cd2 fc3c
000000b0: da8b bdbc 6896 cd3c 161c a7bc 0a25 aabc
000000c0: 30ac f5bc 6880 df3b 5299 bf3c a86a 863c
000000d0: b858 cdbc 5c5b f9bc 2eaa 80bc f8a7 9b3c
000000e0: 72ab ffbc 408b fa3a 4ee6 e7bc 98b8 82bc
000000f0: 0230 c13c 2c34 bebc f420 f5bc 5c26 883c
00000100: 18a5 bc3b 5805 11bc 22e5 ef3c 78d1 85bc
00000110: dc5e 2abc 946d e7bc 62d6 e9bc 0012 50ba
00000120: b270 b43c 7cf8 1dbc 76bc f13c 0017 693c
00000130: 0075 9dbb 8c7e 3cbc d4ec fe3c 54f9 58bc
00000140: 880f e63b 8835 893c 4cfc cabc e031 b13b
00000150: b88d 7e3c ecc6 4dbc 96d1 bcbc e2ae ff3c
00000160: 8852 93bb e0ba 663b 7431 36bc 50d6 2b3b
00000170: b848 2f3c 90c7 503b d0f1 e6bc 2c0c 183c
00000180: 60a7 753b 6898 153c c0ab 253a 0c3a 8cbc
00000190: e014 f6ba c010 f9bc 742e 6c3c acbf ef3c
000001a0: c8a4 afbb acb0 c7bc 2494 1ebc f8db eabc
000001b0: 70e8 2ebb ce42 923c 00fa b538 0ec4 be3c
000001c0: c032 30ba 682e 80bc 08eb 833b 22d1 923c
000001d0: fcaa 903c 06d2 cc3c 6094 c4bc d40a 4abc
000001e0: 56cb a13c f0db 533b c0a4 6e3a aeba f43c
000001f0: 5a9a d93c 281b 763c b609 96bc 8c66 b13c
00000200: f8a3 e5bb 002a 44ba c037 c73b 8874 bc3c
00000210: 548f 8ebc 26fb 80bc 42e6 aa3c 7427 60bc
00000220: 4074 b43b 8c45 cebc c0dc 133a 1859 ab3c
00000230: 68ae b43b 122f 95bc 4c0f 41bc 8299 d2bc
00000240: 68e2 a23c deca c83c aaa8 b93c 3072 d1bc
00000250: c86c 82bb d8f5 2bbc 406e 7b3c 3881 bfbc
00000260: 9e03 de3c 688d 693c f018 6c3b 4c02 e5bc
00000270: 389d d43b 9aa9 a83c 24e6 bbbc f622 b73c
00000280: 208d 19bb f88f 46bc a23f f53c 8cbf 6a3c
00000290: d6a6 e33c f838 eabb 30c6 7a3b 3279 dabc
000002a0: ccf7 cdbc 7cea fcbc 186e 403c 3c70 53bc
000002b0: 8a36 a7bc 90b3 c7bb 00ef 9f39 1ca7 3cbc
000002c0: 042c e5bc a03f 77bb 4cae 66bc 0879 e63c
000002d0: dc4b c0bc f89b babc c8df e7bb 4e84 e9bc
000002e0: 56d4 f23c a2b9 af3c ece4 ec3c 0005 eb3a
000002f0: ee17 bdbc 301d a9bb ea92 ba3c 849c 78bc
00000300: d457 29bc 00be 8b38 889e 833b 90f8 04bc
00000310: f216 a33c a062 8bbb 8045 fc39 d8de 913c
00000320: 6249 c0bc ce47 803c 7a1d e53c a45b d63c
00000330: 9848 c0bb 40fa e63c 94e1 c7bc 103c 243c
00000340: 287c 95bb cc15 3c3c 50a0 dcbb 54e7 803c
00000350: 6495 d8bc 403a 7c3c 0014 a638 00c3 b5bc
00000360: 685a 6dbc 90b6 a3bc d081 7a3c a8be fcbb
00000370: f473 30bc 0054 fbbb f0ea 1fbc e00b eb3c
00000380: 7470 6d3c 2408 acbc 5ea8 b23c 9473 7bbc
00000390: d06d 26bc cc5d b13c 3ce6 f9bc 9acf ba3c
000003a0: 7097 6f3b e0af 55bc 0002 85b8 0083 323b
000003b0: 80ea 563b 6e01 d23c 6c8e 2bbc d4d6 383c
000003c0: ee61 d53c 4410 5f3c 6e22 bdbc f45a d0bc
000003d0: f4fe 3abc 64de 113c e471 183c 50c4 bb3b
000003e0: 2cc2 d53c 808c cbbb 044f ddbc d877 48bc
000003f0: 50e2 1a3c 1c4e 10bc f226 ac3c a822 a7bc

pytorch_layers.0.bias f4 [128]
0.0010769032 0.013463955 -0.014881007 -0.014445331 -0.0020307116 -0.02669362 -0.008451793 -0.008836284
-0.003766179 0.02499552 0.0049790367 0.007434353 -0.012733415 0.0007324815 0.027377363 0.011584353
-0.004466418 -0.0011633597 0.021923121 -0.023289952 -0.02864914 8.2787126e-05 -0.014285121 -0.029333156
0.00048875436 -0.019911557 -0.0011153966 0.0037740283 0.00725146 0.017734852 -0.017272443 -0.024158709
-0.016646862 -0.027078453 -0.003902968 0.011721641 0.019073997 -0.022983111 -0.009127103 0.017084762
0.0209743 0.006386742 0.031241436 0.013639692 0.021643028 0.015588835 -0.026084092 0.022339884
-0.00039169192 -0.025363863 0.007806208 -0.018434979 -0.010305725 0.02266638 0.012060378 0.028819237
-0.00876914 0.013630711 0.017829891 -0.015459713 0.01571111 7.240474e-05 0.026320394 -0.030575182
-0.02858647 0.006048303 0.02890984 -0.012993772 -0.018436104 -0.02483761 -0.030223947 0.007608194
-0.019906685 -0.018183175 0.006237831 0.012771193 -0.0074735843 -0.027625304 0.020488277 0.0010640025
-0.022256978 0.025926143 -0.02171601 0.020968877 -0.014608875 0.0028184094 0.00016139075 -0.004804671
0.018812038 0.022464495 0.00839984 -0.030095235 -0.023050092 0.022177137 -0.020321943 -0.023187622
-0.020394519 0.01086545 -0.008184668 0.009396557 0.030232202 0.0010811426 0.025218159 -0.030216862
-0.027690861 -0.005059257 0.02828801 -0.025962923 0.004570268 -0.0057454854 0.015382938 0.011768393
0.017815512 0.013626635 0.027764972 -0.00877846 0.028898038 -0.009280592 -0.009295508 0.012280248
0.020165768 0.0061641447 0.0018670075 0.0046202354 -0.012337744 0.0037194714 -0.026172504 -0.007978216
00000000: e026 8d3a ec97 5c3c 78cf 73bc 1cac 6cbc
00000010: b015 05bb 94ac dabc 6479 0abc 10c6 10bc
00000020: 00d2 76bb 68c3 cc3c 3027 a33b e09b f33b
00000030: d09f 50bc 0004 403a 7e46 e03c 4ccc 3d3c
00000040: 085b 92bb e07b 98ba 1e98 b33c 92ca bebc
00000050: 9ab1 eabc 009e ad38 240c 6abc 164c f0bc
00000060: c01f 003a 901d a3bc 8032 92ba b055 773b
00000070: a89d ed3b ae48 913c f07e 8dbc 7ce8 c5bc
00000080: 005f 88bc a2d3 ddbc f0c8 7fbb 200c 403c
00000090: 1241 9c3c 1447 bcbc d889 15bc 58f5 8b3c
000000a0: 4cd2 ab3c e047 d13b 0aee ff3c 0479 5f3c
000000b0: b84c b13c 5068 7f3c 4eae d5bc 2202 b73c
000000c0: 005c cdb9 e0c7 cfbc 38cb ff3b f404 97bc
000000d0: 58d9 28bc d8ae b93c e498 453c 5216 ec3c
000000e0: 70ac 0fbc 5853 5f3c fe0f 923c bc4a 7dbc
000000f0: 96b4 803c 00d8 9738 de9d d73c ce78 fabc
00000100: 2c2e eabc d830 c63b 54d4 ec3c d4e3 54bc
00000110: 5007 97bc 3e78 cbbc 3698 f7bc 284e f93b
00000120: 5813 a3bc e2f4 94bc b866 cc3b 443e 513c
00000130: f8e4 f4bb 764e e2bc 08d7 a73c 0076 8b3a
00000140: 4454 b6bc 1063 d43c c6e5 b1bc ecc6 ab3c
00000150: 105a 6fbc 10b5 383b 003b 2939 8070 9dbb
00000160: b41b 9a3c 7607 b83c 7c9f 093c 488a f6bc
00000170: 8cd3 bcbc d4ac b53c 347a a6bc f8f3 bdbc
00000180: 6812 a7bc 0005 323c fc18 06bc 04f4 193c
00000190: 86a9 f73c 20b5 8d3a 5096 ce3c 5a89 f7bc
000001a0: f2d7 e2bc 20c8 a5bb 42bc e73c 32b0 d4bc
000001b0: 30c2 953b a044 bcbb b808 7c3c 38d0 403c
000001c0: d6f1 913c 4042 5f3c 5e73 e33c 88d3 0fbc
000001d0: 94bb ec3c a00d 18bc 304c 18bc 1833 493c
000001e0: ae32 a53c 98fc c93b 60b6 f43a 5865 973b
000001f0: 4024 4abc 60c2 733b b867 d6bc 10b7 02bc

pytorch_layers.2.weight f4 [32, 1, 3, 3]
-0.02491507 -0.19809167 -0.22155187 0.12243834 -0.06730071 -0.3305719 -0.22378147 -0.14150453
-0.049375802 -0.23342244 -0.076680034 -0.28541312 0.18583658 0.0806129 0.123601586 0.19837609
0.11485362 0.31335416 0.2533097 -0.07153702 -0.2133145 0.28292087 -0.06679091 0.022381693
-0.055258274 -0.27931964 0.1750305 0.12810066 -0.12182514 0.3109081 0.02113089 0.057035685
0.2603692 -0.23715346 -0.17045784 -0.32951817 0.041769505 -0.26844427 0.16447997 0.15382409
0.14391741 -0.28159052 -0.3229276 0.30212632 -0.29989892 0.13815883 0.20269814 -0.31117362
0.029797524 -0.23592302 0.06335309 0.23344365 -0.12972948 0.107001334 -0.28309256 -0.23634867
0.16718772 -0.1776577 -0.054610938 0.049096674 -0.1254164 0.10818896 0.09745887 -0.10392666
0.14761376 -0.010984331 -0.13585567 0.31553778 -0.24121659 0.10299733 0.19520536 -0.21083555
0.19200209 0.32592252 0.29523215 -0.19958512 0.30959263 -0.11990051 -0.17903511 0.18289718
-0.29201025 0.18288139 0.061311007 -0.32292134 -0.3274933 -0.16706622 0.31814715 -0.24140784
-0.050868362 -0.122363895 0.1663067 0.10451493 0.14563632 0.26371244 -0.29040465 0.15650627
0.27984825 0.03168711 -0.020291299 -0.0049513876 0.21600679 0.21978906 -0.23859036 0.31331053
0.070008904 -0.16903222 -0.0765976 -0.25049922 -0.25006306 -0.31453115 -0.031016469 0.1081253
-0.03440413 0.2633274 0.32812735 -0.11736366 0.28186467 0.2870383 0.29591003 0.09967947
-0.22843091 -0.2695976 -0.06815657 0.027123779 0.15875134 0.10702142 -0.15499434 -0.22741339
-0.17242353 -0.065749526 0.18081698 -0.045244902 0.19489446 -0.11426592 0.26754215 -0.19480976
-0.055149823 -0.049634248 0.33050528 0.30558684 0.007409364 0.07277632 0.20247069 0.012098283
0.09654513 -0.18445778 -0.13546877 -0.21148913 -0.101713866 0.18004945 0.06999484 0.02289915
-0.046398282 0.0012490451 -0.27287984 0.12366834 0.2966884 -0.15736032 0.010477394 0.32607797
0.07299948 -0.20200428 -0.26594573 0.32572123 0.30130884 0.0074902773 0.31788412 -0.19176853
0.026678324 0.1876314 -0.27197248 0.123482674 0.18583098 0.017430991 -0.1504157 -0.32309067
-0.1306713 0.0152665675 -0.26485163 0.029679209 -0.17779982 -0.014605671 0.33045593 0.29035714
-0.11901641 0.009135723 -0.10072231 -0.25393158 -0.1659724 -0.16543786 0.1698763 0.08273205
-0.20806138 0.053696662 0.19488588 -0.27038202 0.24489191 0.21576992 0.19971994 -0.062221646
0.013565868 0.16413483 -0.106250286 0.12054595 -0.32535088 -0.32853484 -0.06729463 0.069318384
0.12764335 -0.19483793 -0.009206295 0.045285612 0.13786653 0.09215346 0.1346598 0.16440436
-0.2334578 0.18546346 -0.16477 -0.040906817 -0.14314592 -0.16147837 0.16681072 0.041151136
0.16411135 0.0272187 0.10253313 -0.084983036 0.32044306 -0.14043391 0.09848902 0.044092894
-0.29188013 0.28381845 0.107215196 -0.29649663 -0.07998374 0.3193507 0.30157033 0.28782538
0.30721334 -0.30541098 0.24838927 0.043138593 -0.23763514 -0.10102193 -0.1415846 0.22281721
-0.03683439 -0.23210844 0.021466136 -0.0013605654 0.31977352 0.33012828 0.19476041 -0.2310261
00000000: b01a ccbc 8bd8 4abe 7ede 62be f4c0 fa3d
00000010: f4d4 89bd b840 a9be f826 65be 90e6 10be
00000020: 483e 4abd 4b06 6fbe 6c0a 9dbd ab21 92be
00000030: f24b 3e3e 6018 a53d d422 fd3d 1a23 4b3e
00000040: 6038 eb3d f56f a03e cfb1 813e 0082 92bd
00000050: 1e6f 5abe 01db 903e acc9 88bd d059 b73c
00000060: 8056 62bd fc02 8fbe 323b 333e d22c 033e
00000070: 767f f9bd 592f 9f3e b01a ad3c 409e 693d
00000080: 1d4f 853e 5bd8 72be 808c 2ebe 9bb6 a8be
00000090: 8016 2b3d 8771 89be 706d 283e 1084 1d3e
000000a0: 165f 133e a22c 90be c456 a5be 4db0 9a3e
000000b0: 5a8c 99be 8279 0d3e 1a90 4f3e 2652 9fbe
000000c0: f019 f43c ce95 71be 44bf 813d da0b 6f3e
000000d0: ced7 04be 8423 db3d 82f1 90be 6305 72be
000000e0: 4233 2b3e e6eb 35be b8af 5fbd 9819 493d
000000f0: 286d 00be 2c92 dd3d 8498 c73d 80d7 d4bd
00000100: 1028 173e a0f7 33bc c01d 0bbe 2b8e a13e
00000110: 7b01 77be 44f0 d23d eae3 473e 46e5 57be
00000120: 329c 443e 51df a63e ab28 973e 0b60 4cbe
00000130: ed82 9e3e 668e f5bd fb54 37be 6649 3b3e
00000140: 5e82 95be 4245 3b3e 4021 7b3d f255 a5be
00000150: 34ad a7be 6813 2bbe 2fe4 a23e 9e33 77be
00000160: 585b 50bd ec99 fabd 4e4c 2a3e ec0b d63d
00000170: b021 153e 5105 873e ebaf 94be 2e43 203e
00000180: 4548 8f3e 58ca 013d f039 a6bc 403f a2bb
00000190: e230 5d3e 6210 613e 0851 74be 3d6a a03e
000001a0: d460 8f3d c816 2dbe 34df 9cbd 6f41 80be
000001b0: 4408 80be 3a0a a1be 4016 febc cc70 dd3d
000001c0: 58eb 0cbd d9d2 863e 4f00 a83e 5c5c f0bd
000001d0: 9150 903e aff6 923e 8581 973e c024 cc3d
000001e0: cbe9 69be b208 8abe ac95 8bbd b032 de3c
000001f0: b68f 223e 0c2e db3d d6b6 1ebe 0edf 68be
00000200: cb8f 30be b0a7 86bd 1628 393e b852 39bd
00000210: 6a92 473e 4004 eabd 49fb 883e 367c 47be
00000220: c8e4 61bd 484d 4bbd fd37 a93e e175 9c3e
00000230: 40ca f23b c00b 953d 7a54 4f3e e037 463c
00000240: 74b9 c53d 80e2 3cbe 53b8 0abe 9b90 58be
00000250: 5c4f d0bd e25e 383e 7459 8f3d 0097 bb3c
00000260: 200c 3ebd 00b7 a33a e8b6 8bbe d445 fd3d
00000270: 8be7 973e 1023 21be 60a9 2b3c b1f3 a63e
00000280: c080 953d 36da 4ebe 0a2a 88be efc4 a63e
00000290: 2745 9a3e 0071 f53b b5c1 a23e f85e 44be
000002a0: 808c da3c 7222 403e fa3f 8bbe 7ce4 fc3d
000002b0: 7a4a 3e3e 70cb 8e3c 9306 1abe 246c a5be
000002c0: b3ce 05be a020 7a3c a29a 87be d021 f33c
000002d0: 2811 36be a04c 6fbc 8531 a93e b1a9 943e
000002e0: e0be f3bd 00ae 153c 8047 cebd 5203 82be
000002f0: abf4 29be 8b68 29be 0ef4 2d3e 6c6f a93d
00000300: 0b0e 55be 08f1 5b3d 2a90 473e 836f 8abe
00000310: f2c4 7a3e caf2 5c3e 6283 4c3e 20dc 7ebd
00000320: 6043 5e3c f612 283e c099 d9bd cce0 f63d
00000330: 6494 a6be b835 a8be c4d1 89bd ccf6 8d3d
00000340: f0b4 023e 9883 47be 00d6 16bc 687d 393d
00000350: e22c 0d3e f4ba bc3d 42e4 093e 9e59 283e
00000360: 900f 6fbe 22ea 3d3e 78b9 28be e88d 27bd
00000370: d894 12be 965a 25be 6ed0 2a3e 188e 283d
00000380: ce0c 283e c0f9 de3c e4fc d13d 960b aebd
00000390: 1d11 a43e e8cd 0fbe 9cb4 c93d c09a 343d
000003a0: 5071 95be a750 913e a493 db3d 68ce 97be
000003b0: 84ce a3bd ef81 a33e 6d67 9a3e d95d 933e
000003c0: 114b 9d3e d45e 9cbe c259 7e3e 18b2 303d
000003d0: a056 73be 96e4 cebd 8efb 10be 322a 643e
000003e0: a8df 16bd d6ad 6dbe c0d9 af3c 0055 b2ba
000003f0: 5bb9 a33e 9306 a93e 466f 473e 1b92 6cbe

pytorch_layers.2.bias f4 [32]
-0.22252321 -0.011477679 0.25077513 0.1647825 -0.018784136 0.21591762 -0.3302548 0.2479653
-0.32403606 0.28138825 -0.094469905 0.012110025 -0.2874713 0.16901723 0.07018459 0.22574797
0.18933138 -0.1876404 0.31850865 -0.27241135 0.14647853 -0.07996699 0.21964386 -0.23173074
0.007835031 -0.17454366 0.18933657 0.02912262 0.033857673 -0.13398573 -0.19392495 0.2755954
00000000: 20dd 63be e00c 3cbc 9965 803e bebc 283e
00000010: 30e1 99bc 8219 5d3e 2817 a9be 9eea 7d3e
00000020: 0ee8 a5be 1f12 903e 7079 c1bd 2069 463c
00000030: 702f 93be da12 2d3e f0bc 8f3d 7a2a 673e
00000040: 16e0 413e ce24 40be 9113 a33e 8079 8bbe
00000050: 78fe 153e bcc5 a3bd 52ea 603e d34a 6dbe
00000060: 805e 003c 93bb 32be 72e1 413e 9092 ee3c
00000070: 58ae 0a3d 8e33 09be 4394 46be d71a 8d3e
