models/saved/3_11.pth (torch, 2168 bytes, 3 tensors)

pytorch_layers.0.weight f4 [5, 2]
00000000: 9dfc 13bf 223a 24bf ab24 c2be 69f0 c73d
00000010: 1593 ef3d a838 2fbf 4d53 d1be 89ec 0a3f
00000020: 45e1 843e ba1a 8fbe
-0.5780733 -0.64151204 -0.379186 0.097626515 0.116979755 -0.68445826 -0.40883866 0.54267174
0.25953117 -0.27950078

pytorch_layers.0.bias f4 [5]
00000000: c8ee e7bd 2c6c 29bf a18d b5be 5ffd 26bf
00000010: 7804 ba3e
-0.11324841 -0.6618068 -0.35459617 -0.65230364 0.36331534

pytorch_layers.2.weight f4 [1, 5]
00000000: 6be2 8f3e ecda 943e c577 b73d df70 a3be
00000010: dc50 09be
0.2810243 0.29073274 0.08958391 -0.3192205 -0.13409752
