models/saved/3_classification.pth (torch, 2264 bytes, 4 tensors)

pytorch_layers.0.weight f4 [6, 2]
0	0x3f1da9d6	0.61587274
1	0xbf29c037	-0.6630892
2	0x3ea19797	0.31560966
3	0x3eff1878	0.49823356
4	0x3f059113	0.5217449
5	0xbe4877a5	-0.19576891
6	0x3ed0273f	0.40654942
7	0x3f165f95	0.58739597
8	0xbdc0e4a0	-0.09418607
9	0xbe9cf618	-0.30656505
10	0xbe37db86	-0.17954835
11	0xbebee0d6	-0.3728091

pytorch_layers.0.bias f4 [6]
0	0xbea5da9a	-0.32393342
1	0x3d9fd37f	0.078040116
2	0xbeffb44f	-0.49942252
3	0x3b824547	0.0039755437
4	0x3f1c9cf8	0.61177015
5	0xbf2bbd2b	-0.6708552

pytorch_layers.2.weight f4 [2, 6]
0	0xbe64450f	-0.22291969
1	0xbded18d4	-0.11577001
2	0xbe30198f	-0.1719725
3	0xbea15f3d	-0.31517974
4	0x3e9baba8	0.304044
5	0xbddcf3ed	-0.10788713
6	0xbe82fafd	-0.25582114
7	0x3e87592f	0.2643523
8	0xbea8c5a8	-0.329633
9	0xbe4eca4c	-0.20194358
10	0x3e1a9ae2	0.15098146
11	0x3e0b8897	0.13626324

pytorch_layers.2.bias f4 [2]
0	0xbe266820	-0.16250658
1	0x3e21d5ba	0.15804186
