models/saved/3_classify.pth (torch, 527590 bytes, 6 tensors)

pytorch_layers.0.weight f4 [6, 2]
-0.22288619 0.60045284 -0.5453597 -0.027190449 -0.5585343 0.10886101 0.45927638 0.25562426
0.15759481 0.54330575 -0.007828777 0.074613325
00000000: 473c 64be 47b7 193f b19c 0bbf 81be debc
00000010: 1bfc 0ebf 85f2 de3d 4626 eb3e 2fe1 823e
00000020: 8960 213e 1616 0b3f 4544 00bc dfce 983d

pytorch_layers.0.bias f4 [6]
0.019438041 0.5129661 -0.40073627 -0.45061404 0.44095784 0.12958959
00000000: 873c 9f3c bf51 033f 4e2d cdbe e2b6 e6be
00000010: 3ac5 e13e 22b3 043e

pytorch_layers.2.weight f4 [128, 1024]
-0.0029449016 0.023298632 0.01958938 -0.005784709 0.02510453 0.00081456825 -0.006484449 0.0002448447
0.006346874 0.028278083 -0.030778825 0.01475719 0.0031765662 -0.009390086 -0.018342111 0.024461217
0.019436326 -0.00087148324 -0.021905024 -0.008288875 -0.025498785 0.023808401 -0.013595577 -0.021120425
-0.026838597 -0.007402256 -0.008769296 -0.018312354 0.007123377 -0.014625583 -0.025324736 -0.024259992
0.004814919 -0.0028158538 -0.011463977 -0.010897599 -0.015874125 -0.024436295 -0.013657797 0.021761164
0.008749362 0.002155032 0.0061550327 -0.018156115 -0.027648404 -0.0076917857 0.022824023 -0.011564083
-0.015062012 -0.016999856 0.012537435 -0.01273112 -0.010347597 -0.029016633 0.0055836923 -0.029560663
0.029847346 -0.0015411787 0.030644573 0.0018970557 -0.0013572648 -0.03028261 0.030292977 0.0037890226
0.029990762 0.020906728 0.0013263859 -0.025948133 0.026667275 -0.024640936 -0.008142255 -0.030165128
-0.017951868 -0.0027072616 0.026029155 -0.021111805 -0.02643754 0.014459547 -0.0030206032 0.0033877455
0.03036118 -0.01495878 0.031103771 0.014271181 -0.008304264 0.017831322 0.019725207 0.0012179203
-0.01754019 -0.0050864257 -0.0015918538 -0.020604927 0.0028393418 -0.014865801 -0.010988094 0.004666034
-0.016181994 0.027227245 0.009664651 0.010872763 0.025963683 0.007023055 -0.023659937 0.0005007386
0.027281504 0.001327809 -0.009213269 -0.027486991 0.028196987 0.012412082 0.028623473 0.0045555867
0.016707994 -0.02550533 -0.00284281 0.013251435 0.0012150668 0.022276789 -0.013078697 0.017124802
0.018025521 -0.0049642697 0.0041963384 0.022136848 -0.002710402 0.010317691 0.029276792 -0.0027171858
-0.005286988 -0.003012672 0.021472491 0.009677943 -0.025676832 -0.010338873 0.023932107 -0.017737575
0.022494182 -0.01779319 -0.027224187 -0.026323184 0.030296482 -0.019731171 -0.022212919 0.011341974
-0.0030136146 -0.016167205 0.006133117 -0.006418407 0.0020184182 -0.011606969 0.009985741 0.006218914
0.025221936 -0.02639243 -0.007062886 0.012154728 0.013526771 0.014422823 0.004423864 0.029320031
-0.030330036 -0.0031555332 0.02482446 0.026270963 0.00078659505 0.020068891 0.021662164 0.00094190985
-0.009082675 0.024275992 0.021694865 -0.012957353 -0.008181959 0.026620772 0.018200196 -0.024775602
-0.030810341 0.009952806 -0.0022204705 0.0077335425 -0.0044921003 0.008802611 0.0071867704 -0.021287449
-0.021215051 0.0018088333 -0.025650956 0.018772785 -0.023193415 0.03095366 -0.0043530017 -0.014966529
-0.00869916 -0.028625838 0.008635182 -0.030601192 0.0155657865 -0.011497412 -0.015751015 -0.016072195
0.013835959 -0.017878633 -0.000132747 0.028428443 -0.015442591 0.017263833 0.020699523 0.022731584
-0.021062344 0.024053313 -0.018333998 0.01753299 0.015982177 0.0031751953 0.0067072883 -0.009728909
-0.031111296 0.031133436 -0.023681965 0.020298794 0.02866787 0.02047177 0.010796338 -0.01872953
-0.016346876 -0.017215312 -0.01065864 -0.020798739 -0.018679455 -0.006441623 0.016529761 -0.01336664
0.008743111 -0.026570398 -0.017286915 0.023531143 -0.00228047 -2.785027e-05 -0.010345958 -0.026459683
0.019220583 -0.010605767 0.025945723 -0.015769742 0.0060189255 -0.005074013 0.009066876 -0.004777085
-0.021785337 0.022396065 0.015373144 -0.028523527 0.020470396 -0.018478323 0.023161657 -0.0073603243
00000000: 40ff 40bb c6dc be3c e879 a03c a88d bdbb
00000010: 04a8 cd3c c088 553a 807b d4bb 805e 8039
00000020: 70f9 cf3b 70a7 e73c e023 fcbc 24c8 713c
00000030: f02d 503b e0d8 19bc 3242 96bc e462 c83c
00000040: ee38 9f3c 4074 64ba 2a72 b3bc 10ce 07bc
00000050: d4e2 d0bc d609 c33c fcbf 5ebc be04 adbc
00000060: 9edc dbbc a08e f2bb 18ad 0fbc ca03 96bc
00000070: 386b e93b 24a0 6fbc d275 cfbc e4bc c6bc
00000080: 78c6 9d3b 308a 38bb 68d3 3bbc d88b 32bc
00000090: 740a 82bc a02e c8bc f4c4 5fbc 7844 b23c
000000a0: 7c59 0f3c 703b 0d3b 28b0 c93b 22bc 94bc
000000b0: e87e e2bc 600b fcbb 72f9 ba3c 4877 3dbc
000000c0: a8c6 76bc 4843 8bbc d069 4d3c 3096 50bc
000000d0: f888 29bc 4ab4 edbc 68f7 b63b 3429 f2bc
000000e0: 6c82 f43c 6001 caba 540a fb3c a0a6 f83a
000000f0: 40e6 b1ba 3c13 f8bc fa28 f83c 4051 783b
00000100: 30af f53c 9644 ab3c 20da ad3a 2e91 d4bc
00000110: 5475 da3c cadb c9bc 1867 05bc dc1c f7bc
00000120: cc0f 93bc 506c 31bb 183b d53c aaf2 acbc
00000130: 8a93 d8bc bce7 6c3c 50f5 45bb f004 5e3b
00000140: 02b8 f83c ac15 75bc 56cd fe3c acd1 693c
00000150: 9c0e 08bc fe12 923c c296 a13c a0a2 9f3a
00000160: 72b0 8fbc 08ac a6bb c0a5 d0ba aacb a8bc
00000170: 4014 3a3b b08f 73bc 6807 34bc 88e5 983b
00000180: 1a90 84bc ac0b df3c 7c58 1e3c ac23 323c
00000190: cab1 d43c a821 e63b 7cd2 c1bc 0044 033a
000001a0: 767d df3c e009 ae3a 40f3 16bc 662c e1bc
000001b0: 5efd e63c 0c5c 4b3c c67b ea3c 0847 953b
000001c0: 34df 883c 8ef0 d0bc 704e 3abb 8c1c 593c
000001d0: e042 9f3a d07d b63c 0848 56bc 5049 8c3c
000001e0: 42aa 933c 50ab a2bb 7081 893b 5658 b53c
000001f0: 00a1 31bb 880b 293c e2d5 ef3c d012 32bb
00000200: 783e adbb 4070 45bb 14e7 af3c 3c90 1e3c
00000210: 3858 d2bc 6064 29bc 440d c43c 644e 91bc
00000220: b845 b83c 06c3 91bc 4205 dfbc b8a3 d7bc
00000230: 5430 f83c 44a3 a1bc def7 b5bc b0d3 393c
00000240: 1080 45bb 1671 84bc 50f8 c83b 8051 d2bb
00000250: 7047 043b 282b 3ebc 3c9b 233c 08c8 cb3b
00000260: 3c9e ce3c f034 d8bc c86f e7bb a024 473c
00000270: 649f 5d3c b44d 6c3c 10f6 903b 9030 f03c
00000280: b276 f8bc 10cd 4ebb aa5c cb3c 3436 d73c
00000290: 8033 4e3a 8467 a43c da74 b13c 80ea 763a
000002a0: 80cf 14bc 72de c63c 6eb9 b13c 144b 54bc
000002b0: a00d 06bc ce13 da3c 9418 953c 34f6 cabc
000002c0: f865 fcbc 1811 233c 5085 11bb a869 fd3b
000002d0: 7832 93bb d438 103c 007f eb3b 0463 aebc
000002e0: 30cb adbc 6016 ed3a f421 d2bc 62c9 993c
000002f0: 1e00 bebc 8892 fd3c a0a3 8ebb 2c36 75bc
00000300: ec86 0ebc bc80 eabc 947a 0d3c 5aaf fabc
00000310: a407 7f3c a45f 3cbc 4608 81bc d6a9 83bc
00000320: 38b0 623c 3676 92bc 0032 0bb9 c4e2 e83c
00000330: ec02 7dbc e26c 8d3c 0c92 a93c 9637 ba3c
00000340: f08a acbc 740b c53c 2e31 96bc 58a1 8f3c
00000350: 0eed 823c f016 503b d0c8 db3b 0066 1fbc
00000360: 1edd febc 8c0b ff3c ae00 c2bc a849 a63c
00000370: e2d8 ea3c 6ab4 a73c 20e3 303c ac6e 99bc
00000380: e2e9 85bc 2007 8dbc 94a1 2ebc 1e62 aabc
00000390: a805 99bc 4014 d3bb 6c69 873c c0ff 5abc
000003a0: 443f 0f3c 2aaa d9bc 4a9d 8dbc 62c4 c03c
000003b0: f073 15bb 00a0 e9b7 1882 29bc fac1 d8bc
000003c0: 7c74 9d3c d0c3 2dbc 208c d43c 8c2f 81bc
000003d0: 683a c53b e843 a6bb 3c8d 143c 1889 9cbb
000003e0: 2a77 b2bc f477 b73c a4df 7b3c 2caa e9bc
000003f0: 88b1 a73c da5f 97bc 84bd bd3c e02e f1bb

pytorch_layers.2.bias f4 [128]
-0.028709408 0.0010178499 -0.005405195 0.0048790425 0.0118245 0.030745063 -0.029172614 -0.012942754
-0.027464435 -0.0174664 -0.018266685 0.0093802735 -0.0024882853 -0.004768215 -0.0039687715 0.002371218
-0.011656422 0.018974315 0.0125062205 0.025201615 0.00551245 0.026649509 -0.027676549 0.030487042
0.007686835 0.00545134 -0.015673384 -0.008683685 0.028163627 -0.020987682 -0.005185876 -0.0034633353
0.028440878 -0.024857793 -0.0075212643 -0.0220306 0.007427804 -0.021220267 0.028647553 -0.011849515
0.019817293 0.020045359 -0.015866693 0.0062828735 -0.01781999 0.02722207 0.0014116131 0.014933627
-0.018338375 -0.003032621 -0.01878982 0.0077950545 0.02763201 -0.0033531077 -0.0038097166 0.009429205
0.02297853 -0.023258545 -0.015685946 0.016518064 -0.008545049 0.004585419 -0.00032483786 -0.031133998
0.028442275 -0.019620035 0.008612987 0.011511549 -0.013227209 -0.020396937 -0.0023713745 0.012848478
0.017856494 -0.001025252 0.025089286 0.02909831 -0.016344562 -0.02754395 0.01992347 -0.01905021
-0.021036338 0.021599095 -0.02575431 -0.01879644 0.017303314 0.030188356 -0.0095734 -0.029827703
-0.029730197 -0.0020131543 0.0012717284 0.01574691 -0.012385413 -0.021587346 -0.009343848 0.0044489726
0.02239149 0.0102457255 0.018828213 0.010383099 -0.018403504 0.024428118 -0.001485154 0.004282497
-4.6800822e-05 -0.011542421 0.020785082 0.0060081966 -0.0199802 -0.007987969 0.0138709545 0.022337798
-0.021419168 -0.023310222 -0.018129192 -0.022326514 5.23068e-05 0.028319437 -0.014855649 -0.021524522
-0.00038408116 0.0004283376 -0.028251223 -0.013169009 -0.025302809 -0.007463414 0.013795912 0.022343319
00000000: fe2f ebbc 6069 853a 101e b1bb 60e0 9f3b
00000010: 8cbb 413c 12dd fb3c 68fb eebc d80d 54bc
00000020: 18fd e0bc b215 8fbc 04a4 95bc b8af 193c
00000030: 8012 23bb b03e 9cbb 780c 82bb 7066 1b3b
00000040: 94fa 3ebc 0670 9b3c e4e6 4c3c 9e73 ce3c
00000050: c8a1 b43b 1250 da3c eeb9 e2bc f6bf f93c
00000060: d8e1 fb3b 28a1 b23b 7865 80bc 0446 0ebc
00000070: 68b7 e63c 5cee abbc 48ee a9bb 20f9 62bb
00000080: d8fc e83c 92a2 cbbc f074 f6bb 8479 b4bc
00000090: f064 f33b 20d6 adbc 46ae ea3c 7824 42bc
000000a0: e057 a23c 2a36 a43c defa 81bc 90e0 cd3b
000000b0: 3afb 91bc d200 df3c e005 b93a 2cac 743c
000000c0: 5c3a 96bc f0be 46bb 1ced 99bc a86d ff3b
000000d0: 865c e23c d0bf 5bbb 70ac 79bb f47c 1a3c
000000e0: 783d bc3c b488 bebc d07f 80bc e450 873c
000000f0: 8800 0cbc 4841 963b 004f aab9 ba0c ffbc
00000100: c6ff e83c 32ba a0bc 7c1d 0d3c f09a 3c3c
00000110: f0b6 58bc 7a17 a7bc 1069 1bbb 6c82 523c
00000120: c847 923c c061 86ba 0c88 cd3c 945f ee3c
00000130: 08e5 85bc daa3 e1bc 8c36 a33c 300f 9cbc
00000140: 6654 acbc 96f0 b03c b4fa d2bc fefa 99bc
00000150: aebf 8d3c 924d f73c c0d9 1cbc 3a59 f4bc
00000160: be8c f3bc 20ef 03bb 20b0 a63a aaff 803c
00000170: 30ec 4abc f2d7 b0bc f016 19bc b0c8 913b
00000180: 5c6e b73c b0dd 273c a03d 9a3c e01d 2a3c
00000190: f2c2 96bc 7a1d c83c 80a9 c2ba 3054 8c3b
000001a0: 004c 44b8 6c1c 3dbc 7a45 aa3c 68e0 c43b
000001b0: 84ad a3bc f8df 02bc 0043 633c c2fd b63c
000001c0: 4077 afbc 14f5 bebc ac83 94bc 18e6 b6bc
000001d0: 0064 5b38 2afe e73c 1c65 73bc 3254 b0bc
000001e0: 805e c9b9 8092 e039 1c6f e7bc d4c2 57bc
000001f0: d647 cfbc a88f f4bb 4008 623c 5609 b73c

pytorch_layers.3.weight f4 [2, 6]
0.016339164 -0.02532708 -0.24841724 0.3524155 0.20372128 0.23009768 0.021274338 0.19182143
0.34152994 -0.3837723 0.19346784 -0.19896428
00000000: b6d9 853c bd7a cfbc 1761 7ebe ce6f b43e
00000010: 509c 503e ba9e 6b3e 8547 ae3c d66c 443e
00000020: 03dd ae3e ce7d c4be 6f1c 463e 4bbd 4bbe

pytorch_layers.3.bias f4 [2]
-0.11045027 -0.27215147
00000000: c033 e2bd 7057 8bbe
