models/saved/3_classify2.pth (torch, 2224 bytes, 4 tensors)

pytorch_layers.0.weight f4 [6, 2]
00000000: 1b24 463e 2804 39be f262 00bf c1f8 d3be
00000010: 00c3 363e 1836 20bf 94fa f9bd 82e4 8f3d
00000020: 6c3a 2e3f ba7b 0bbf c1e9 003e 0608 063f
0.1934971 -0.18067992 -0.5015098 -0.41400722 0.17847824 -0.6258254 -0.12205997 0.07026006
0.68057895 -0.54485667 0.1258917 0.5235599

pytorch_layers.0.bias f4 [6]
00000000: caae c13e 1fe7 27be dff3 38ba 95a0 1c3f
00000010: 788f e73e 21d1 e13e
0.37828666 -0.1639676 -0.00070553826 0.6118253 0.45226645 0.44104865

pytorch_layers.2.weight f4 [2, 6]
00000000: 46c9 193d 98f7 b7be 8bbc 063d 6610 4bbe
00000010: 4c25 9d3e cc72 083e ef2a c3bd 1e77 b7be
00000020: 214f 93be 5151 eebd a984 67be 8116 cebe
0.037545465 -0.35931087 0.032894652 -0.19830474 0.30692518 0.13325042 -0.09529673 -0.35833067
-0.28771308 -0.116366036 -0.226092 -0.40251544

pytorch_layers.2.bias f4 [2]
00000000: 90ae 133e 9da2 c7be
0.14422059 -0.38991252
