models/saved/3_cv.pth (torch, 2168 bytes, 3 tensors)

pytorch_layers.0.weight f4 [6, 2]
0.44717604 0.6476558 0.31427437 -0.05244349 -0.1177234 -0.53653383 0.60149014 0.021729566
0.1537141 0.14114407 -0.14678028 0.347265
00000000: 42f4 e43e c5cc 253f 92e8 a03e fcce 56bd
00000010: f718 f1bd 485a 09bf 42fb 193f 3402 b23c
00000020: 3b67 1d3e 1288 103e 924d 16be b8cc b13e

pytorch_layers.0.bias f4 [6]
0.31640205 -0.48345587 0.21048035 -0.16672602 0.49583793 0.17606947
00000000: 73ff a13e 8787 f7be 2988 573e 3aba 2abe
00000010: 78de fd3e 8e4b 343e

pytorch_layers.2.weight f4 [1, 6]
0.3615209 0.23916268 0.15311429 0.37796837 -0.39128435 0.040589634
00000000: 4419 b93e 10e7 743e fec9 1c3e 1285 c13e
00000010: 6c56 c8be 5141 263d
