models/saved/3_test1.pth (torch, 2192 bytes, 4 tensors)

pytorch_layers.0.weight f4 [6, 2]
00000000: 673b 51be 9fae c63e 42da c3be 3dd4 26bf
00000010: 7053 073e dde0 32bf 05c9 1b3e 56ae 023f
00000020: 2e91 91be 9fd6 ef3e 4e0d 933c 4751 1a3f
-0.20432816 0.388051 -0.38252455 -0.651676 0.13215423 -0.69874364 0.15213402 0.51047266
-0.28431076 0.4684343 0.01795068 0.6028027

pytorch_layers.0.bias f4 [6]
00000000: d803 353f e42d d3bd 127b 213f fd48 2cbf
00000010: c222 9c3d 3ca3 dcbe
0.7070899 -0.10311487 0.63078415 -0.6729887 0.07623817 -0.43093288

pytorch_layers.2.weight f4 [2, 6]
00000000: 7197 023e 392f 1d3e e2d0 c6be 2da0 633e
00000010: 5544 92bd 8515 33bd db1e 0fbd b315 85be
00000020: 6ed0 ad3e 4dd3 78be b324 d8bd fd2a cbbe
0.12753083 0.15350045 -0.3883124 0.22229071 -0.071419396 -0.043721694 -0.034941535 -0.25993118
0.33948082 -0.24299355 -0.10553875 -0.39681235

pytorch_layers.2.bias f4 [2]
00000000: 0ad3 d03e f59c ce3e
0.4078601 0.40354124
